…
stepvalue: 100000
stepvalue: 200000
I0110 19:10:24.817538  5537 solver.cpp:81] Creating training net from train_net file: fcn2_train.prototxt
I0110 19:10:24.818385  5537 net.cpp:49] Initializing net from parameters: 
name: "FCN"
force_backward: true
state {
  phase: TRAIN
}
layer {
  name: "data"
  type: "Data"
  top: "data"
  data_param {
    source: "train2_images_lmdb/"
    batch_size: 1
    backend: LMDB
  }
}
layer {
  name: "label"
  type: "Data"
  top: "label"
  data_param {
    source: "train2_labels_lmdb/"
    batch_size: 1
    backend: LMDB
  }
}
layer {
  name: "label2"
  type: "Reshape"
  bottom: "label"
  top: "label2"
  reshape_param {
    shape {
      dim: 1
      dim: 1
      dim: 1
      dim: 1200
    }
  }
}
layer {
  name: "conv1"
  type: "Convolution"
  bottom: "data"
  top: "conv1"
  param {
    lr_mult: 1
    decay_mult: 1
  }
  param {
    lr_mult: 2
    decay_mult: 0
  }
  convolution_param {
    num_output: 40
    pad: 50
    kernel_size: 5
    group: 1
    stride: 1
    weight_filler {
      type: "gaussian"
      mean: 0
      std: 0.01
    }
    bias_filler {
      type: "constant"
      value: 0.1
    }
  }
}
layer {
  name: "bn1"
  type: "BatchNorm"
  bottom: "conv1"
  top: "bn1"
}
layer {
  name: "relu1"
  type: "ReLU"
  bottom: "bn1"
  top: "relu1"
}
layer {
  name: "pool1"
  type: "Pooling"
  bottom: "relu1"
  top: "pool1"
  pooling_param {
    pool: MAX
    kernel_size: 2
    stride: 2
  }
}
layer {
  name: "conv2"
  type: "Convolution"
  bottom: "pool1"
  top: "conv2"
  param {
    lr_mult: 1
    decay_mult: 1
  }
  param {
    lr_mult: 2
    decay_mult: 0
  }
  convolution_param {
    num_output: 40
    pad: 0
    kernel_size: 3
    group: 1
    stride: 1
    weight_filler {
      type: "gaussian"
      mean: 0
      std: 0.01
    }
    bias_filler {
      type: "constant"
      value: 0.1
    }
  }
}
layer {
  name: "bn2"
  type: "BatchNorm"
  bottom: "conv2"
  top: "bn2"
}
layer {
  name: "relu2"
  type: "ReLU"
  bottom: "bn2"
  top: "relu2"
}
layer {
  name: "pool2"
  type: "Pooling"
  bottom: "relu2"
  top: "pool2"
  pooling_param {
    pool: MAX
    kernel_size: 2
    stride: 2
  }
}
layer {
  name: "conv3"
  type: "Convolution"
  bottom: "pool2"
  top: "conv3"
  param {
    lr_mult: 1
    decay_mult: 1
  }
  param {
    lr_mult: 2
    decay_mult: 0
  }
  convolution_param {
    num_output: 40
    pad: 0
    kernel_size: 3
    group: 1
    stride: 1
    weight_filler {
      type: "gaussian"
      mean: 0
      std: 0.01
    }
    bias_filler {
      type: "constant"
      value: 0.1
    }
  }
}
layer {
  name: "bn3"
  type: "BatchNorm"
  bottom: "conv3"
  top: "bn3"
}
layer {
  name: "relu3"
  type: "ReLU"
  bottom: "bn3"
  top: "relu3"
}
layer {
  name: "pool3"
  type: "Pooling"
  bottom: "relu3"
  top: "pool3"
  pooling_param {
    pool: MAX
    kernel_size: 2
    stride: 2
  }
}
layer {
  name: "flatten"
  type: "Flatten"
  bottom: "pool3"
  top: "flatten"
}
layer {
  name: "drop"
  type: "Dropout"
  bottom: "flatten"
  top: "drop"
  dropout_param {
    dropout_ratio: 0.5
  }
}
layer {
  name: "score"
  type: "InnerProduct"
  bottom: "drop"
  top: "score"
  inner_product_param {
    num_output: 2400
  }
}
layer {
  name: "score_s"
  type: "Sigmoid"
  bottom: "score"
  top: "score_s"
}
layer {
  name: "score2"
  type: "Reshape"
  bottom: "score_s"
  top: "score2"
  reshape_param {
    shape {
      dim: 1
      dim: 2
      dim: 1
      dim: 1200
    }
  }
}
layer {
  name: "loss"
  type: "SoftmaxWithLoss"
  bottom: "score2"
  bottom: "label2"
  top: "loss"
  loss_param {
    normalize: true
  }
}
I0110 19:10:24.818457  5537 layer_factory.hpp:77] Creating layer data
I0110 19:10:24.818536  5537 net.cpp:106] Creating Layer data
I0110 19:10:24.818544  5537 net.cpp:411] data -> data
I0110 19:10:24.819396  5549 db_lmdb.cpp:38] Opened lmdb train2_images_lmdb/
I0110 19:10:24.834028  5537 data_layer.cpp:41] output data size: 1,29,128,128
I0110 19:10:24.836261  5537 net.cpp:150] Setting up data
I0110 19:10:24.836308  5537 net.cpp:157] Top shape: 1 29 128 128 (475136)
I0110 19:10:24.836318  5537 net.cpp:165] Memory required for data: 1900544
I0110 19:10:24.836330  5537 layer_factory.hpp:77] Creating layer label
I0110 19:10:24.836391  5537 net.cpp:106] Creating Layer label
I0110 19:10:24.836405  5537 net.cpp:411] label -> label
I0110 19:10:24.837412  5552 db_lmdb.cpp:38] Opened lmdb train2_labels_lmdb/
I0110 19:10:24.837514  5537 data_layer.cpp:41] output data size: 1,1200,1,1
I0110 19:10:24.838009  5537 net.cpp:150] Setting up label
I0110 19:10:24.838035  5537 net.cpp:157] Top shape: 1 1200 1 1 (1200)
I0110 19:10:24.838042  5537 net.cpp:165] Memory required for data: 1905344
I0110 19:10:24.838048  5537 layer_factory.hpp:77] Creating layer label2
I0110 19:10:24.838065  5537 net.cpp:106] Creating Layer label2
I0110 19:10:24.838073  5537 net.cpp:454] label2 <- label
I0110 19:10:24.838084  5537 net.cpp:411] label2 -> label2
I0110 19:10:24.838127  5537 net.cpp:150] Setting up label2
I0110 19:10:24.838137  5537 net.cpp:157] Top shape: 1 1 1 1200 (1200)
I0110 19:10:24.838141  5537 net.cpp:165] Memory required for data: 1910144
I0110 19:10:24.838145  5537 layer_factory.hpp:77] Creating layer conv1
I0110 19:10:24.838155  5537 net.cpp:106] Creating Layer conv1
I0110 19:10:24.838160  5537 net.cpp:454] conv1 <- data
I0110 19:10:24.838165  5537 net.cpp:411] conv1 -> conv1
I0110 19:10:25.016397  5537 net.cpp:150] Setting up conv1
I0110 19:10:25.016438  5537 net.cpp:157] Top shape: 1 40 224 224 (2007040)
I0110 19:10:25.016443  5537 net.cpp:165] Memory required for data: 9938304
I0110 19:10:25.016460  5537 layer_factory.hpp:77] Creating layer bn1
I0110 19:10:25.016471  5537 net.cpp:106] Creating Layer bn1
I0110 19:10:25.016475  5537 net.cpp:454] bn1 <- conv1
I0110 19:10:25.016484  5537 net.cpp:411] bn1 -> bn1
I0110 19:10:25.016640  5537 net.cpp:150] Setting up bn1
I0110 19:10:25.016649  5537 net.cpp:157] Top shape: 1 40 224 224 (2007040)
I0110 19:10:25.016652  5537 net.cpp:165] Memory required for data: 17966464
I0110 19:10:25.016661  5537 layer_factory.hpp:77] Creating layer relu1
I0110 19:10:25.016667  5537 net.cpp:106] Creating Layer relu1
I0110 19:10:25.016670  5537 net.cpp:454] relu1 <- bn1
I0110 19:10:25.016675  5537 net.cpp:411] relu1 -> relu1
I0110 19:10:25.016795  5537 net.cpp:150] Setting up relu1
I0110 19:10:25.016805  5537 net.cpp:157] Top shape: 1 40 224 224 (2007040)
I0110 19:10:25.016809  5537 net.cpp:165] Memory required for data: 25994624
I0110 19:10:25.016813  5537 layer_factory.hpp:77] Creating layer pool1
I0110 19:10:25.016819  5537 net.cpp:106] Creating Layer pool1
I0110 19:10:25.016824  5537 net.cpp:454] pool1 <- relu1
I0110 19:10:25.016829  5537 net.cpp:411] pool1 -> pool1
I0110 19:10:25.017024  5537 net.cpp:150] Setting up pool1
I0110 19:10:25.017035  5537 net.cpp:157] Top shape: 1 40 112 112 (501760)
I0110 19:10:25.017038  5537 net.cpp:165] Memory required for data: 28001664
I0110 19:10:25.017042  5537 layer_factory.hpp:77] Creating layer conv2
I0110 19:10:25.017050  5537 net.cpp:106] Creating Layer conv2
I0110 19:10:25.017055  5537 net.cpp:454] conv2 <- pool1
I0110 19:10:25.017060  5537 net.cpp:411] conv2 -> conv2
I0110 19:10:25.018198  5537 net.cpp:150] Setting up conv2
I0110 19:10:25.018211  5537 net.cpp:157] Top shape: 1 40 110 110 (484000)
I0110 19:10:25.018215  5537 net.cpp:165] Memory required for data: 29937664
I0110 19:10:25.018221  5537 layer_factory.hpp:77] Creating layer bn2
I0110 19:10:25.018229  5537 net.cpp:106] Creating Layer bn2
I0110 19:10:25.018232  5537 net.cpp:454] bn2 <- conv2
I0110 19:10:25.018237  5537 net.cpp:411] bn2 -> bn2
I0110 19:10:25.018359  5537 net.cpp:150] Setting up bn2
I0110 19:10:25.018368  5537 net.cpp:157] Top shape: 1 40 110 110 (484000)
I0110 19:10:25.018375  5537 net.cpp:165] Memory required for data: 31873664
I0110 19:10:25.018389  5537 layer_factory.hpp:77] Creating layer relu2
I0110 19:10:25.018395  5537 net.cpp:106] Creating Layer relu2
I0110 19:10:25.018401  5537 net.cpp:454] relu2 <- bn2
I0110 19:10:25.018406  5537 net.cpp:411] relu2 -> relu2
I0110 19:10:25.018519  5537 net.cpp:150] Setting up relu2
I0110 19:10:25.018527  5537 net.cpp:157] Top shape: 1 40 110 110 (484000)
I0110 19:10:25.018532  5537 net.cpp:165] Memory required for data: 33809664
I0110 19:10:25.018535  5537 layer_factory.hpp:77] Creating layer pool2
I0110 19:10:25.018540  5537 net.cpp:106] Creating Layer pool2
I0110 19:10:25.018544  5537 net.cpp:454] pool2 <- relu2
I0110 19:10:25.018548  5537 net.cpp:411] pool2 -> pool2
I0110 19:10:25.018739  5537 net.cpp:150] Setting up pool2
I0110 19:10:25.018750  5537 net.cpp:157] Top shape: 1 40 55 55 (121000)
I0110 19:10:25.018754  5537 net.cpp:165] Memory required for data: 34293664
I0110 19:10:25.018759  5537 layer_factory.hpp:77] Creating layer conv3
I0110 19:10:25.018765  5537 net.cpp:106] Creating Layer conv3
I0110 19:10:25.018769  5537 net.cpp:454] conv3 <- pool2
I0110 19:10:25.018774  5537 net.cpp:411] conv3 -> conv3
I0110 19:10:25.019619  5537 net.cpp:150] Setting up conv3
I0110 19:10:25.019632  5537 net.cpp:157] Top shape: 1 40 53 53 (112360)
I0110 19:10:25.019636  5537 net.cpp:165] Memory required for data: 34743104
I0110 19:10:25.019642  5537 layer_factory.hpp:77] Creating layer bn3
I0110 19:10:25.019647  5537 net.cpp:106] Creating Layer bn3
I0110 19:10:25.019651  5537 net.cpp:454] bn3 <- conv3
I0110 19:10:25.019656  5537 net.cpp:411] bn3 -> bn3
I0110 19:10:25.019775  5537 net.cpp:150] Setting up bn3
I0110 19:10:25.019783  5537 net.cpp:157] Top shape: 1 40 53 53 (112360)
I0110 19:10:25.019785  5537 net.cpp:165] Memory required for data: 35192544
I0110 19:10:25.019791  5537 layer_factory.hpp:77] Creating layer relu3
I0110 19:10:25.019796  5537 net.cpp:106] Creating Layer relu3
I0110 19:10:25.019800  5537 net.cpp:454] relu3 <- bn3
I0110 19:10:25.019805  5537 net.cpp:411] relu3 -> relu3
I0110 19:10:25.019918  5537 net.cpp:150] Setting up relu3
I0110 19:10:25.019927  5537 net.cpp:157] Top shape: 1 40 53 53 (112360)
I0110 19:10:25.019930  5537 net.cpp:165] Memory required for data: 35641984
I0110 19:10:25.019934  5537 layer_factory.hpp:77] Creating layer pool3
I0110 19:10:25.019939  5537 net.cpp:106] Creating Layer pool3
I0110 19:10:25.019943  5537 net.cpp:454] pool3 <- relu3
I0110 19:10:25.019948  5537 net.cpp:411] pool3 -> pool3
I0110 19:10:25.020133  5537 net.cpp:150] Setting up pool3
I0110 19:10:25.020144  5537 net.cpp:157] Top shape: 1 40 27 27 (29160)
I0110 19:10:25.020148  5537 net.cpp:165] Memory required for data: 35758624
I0110 19:10:25.020151  5537 layer_factory.hpp:77] Creating layer flatten
I0110 19:10:25.020158  5537 net.cpp:106] Creating Layer flatten
I0110 19:10:25.020160  5537 net.cpp:454] flatten <- pool3
I0110 19:10:25.020165  5537 net.cpp:411] flatten -> flatten
I0110 19:10:25.020182  5537 net.cpp:150] Setting up flatten
I0110 19:10:25.020189  5537 net.cpp:157] Top shape: 1 29160 (29160)
I0110 19:10:25.020191  5537 net.cpp:165] Memory required for data: 35875264
I0110 19:10:25.020195  5537 layer_factory.hpp:77] Creating layer drop
I0110 19:10:25.020207  5537 net.cpp:106] Creating Layer drop
I0110 19:10:25.020211  5537 net.cpp:454] drop <- flatten
I0110 19:10:25.020216  5537 net.cpp:411] drop -> drop
I0110 19:10:25.020243  5537 net.cpp:150] Setting up drop
I0110 19:10:25.020251  5537 net.cpp:157] Top shape: 1 29160 (29160)
I0110 19:10:25.020253  5537 net.cpp:165] Memory required for data: 35991904
I0110 19:10:25.020257  5537 layer_factory.hpp:77] Creating layer score
I0110 19:10:25.020263  5537 net.cpp:106] Creating Layer score
I0110 19:10:25.020267  5537 net.cpp:454] score <- drop
I0110 19:10:25.020272  5537 net.cpp:411] score -> score
I0110 19:10:25.119374  5537 net.cpp:150] Setting up score
I0110 19:10:25.119411  5537 net.cpp:157] Top shape: 1 2400 (2400)
I0110 19:10:25.119417  5537 net.cpp:165] Memory required for data: 36001504
I0110 19:10:25.119449  5537 layer_factory.hpp:77] Creating layer score_s
I0110 19:10:25.119474  5537 net.cpp:106] Creating Layer score_s
I0110 19:10:25.119482  5537 net.cpp:454] score_s <- score
I0110 19:10:25.119489  5537 net.cpp:411] score_s -> score_s
I0110 19:10:25.119681  5537 net.cpp:150] Setting up score_s
I0110 19:10:25.119695  5537 net.cpp:157] Top shape: 1 2400 (2400)
I0110 19:10:25.119699  5537 net.cpp:165] Memory required for data: 36011104
I0110 19:10:25.119704  5537 layer_factory.hpp:77] Creating layer score2
I0110 19:10:25.119710  5537 net.cpp:106] Creating Layer score2
I0110 19:10:25.119716  5537 net.cpp:454] score2 <- score_s
I0110 19:10:25.119721  5537 net.cpp:411] score2 -> score2
I0110 19:10:25.119743  5537 net.cpp:150] Setting up score2
I0110 19:10:25.119750  5537 net.cpp:157] Top shape: 1 2 1 1200 (2400)
I0110 19:10:25.119755  5537 net.cpp:165] Memory required for data: 36020704
I0110 19:10:25.119757  5537 layer_factory.hpp:77] Creating layer loss
I0110 19:10:25.119763  5537 net.cpp:106] Creating Layer loss
I0110 19:10:25.119767  5537 net.cpp:454] loss <- score2
I0110 19:10:25.119771  5537 net.cpp:454] loss <- label2
I0110 19:10:25.119777  5537 net.cpp:411] loss -> loss
I0110 19:10:25.119786  5537 layer_factory.hpp:77] Creating layer loss
…
I0110 19:10:25.120254  5537 net.cpp:283] Network initialization done.
I0110 19:10:25.122424  5537 solver.cpp:181] Creating test net (#0) specified by test_net file: fcn2_test.prototxt
I0110 19:10:25.122544  5537 net.cpp:49] Initializing net from parameters: 
name: "FCN"
force_backward: true
state {
  phase: TEST
}
layer {
  name: "data"
  type: "Data"
  top: "data"
  data_param {
    source: "test2_images_lmdb/"
    batch_size: 1
    backend: LMDB
  }
}
layer {
  name: "label"
  type: "Data"
  top: "label"
  data_param {
    source: "test2_labels_lmdb/"
    batch_size: 1
    backend: LMDB
  }
}
layer {
  name: "label2"
  type: "Reshape"
  bottom: "label"
  top: "label2"
  reshape_param {
    shape {
      dim: 1
      dim: 1
      dim: 1
      dim: 1200
    }
  }
}
layer {
  name: "conv1"
  type: "Convolution"
  bottom: "data"
  top: "conv1"
  param {
    lr_mult: 1
    decay_mult: 1
  }
  param {
    lr_mult: 2
    decay_mult: 0
  }
  convolution_param {
    num_output: 40
    pad: 50
    kernel_size: 5
    group: 1
    stride: 1
    weight_filler {
      type: "gaussian"
      mean: 0
      std: 0.01
    }
    bias_filler {
      type: "constant"
      value: 0.1
    }
  }
}
layer {
  name: "bn1"
  type: "BatchNorm"
  bottom: "conv1"
  top: "bn1"
}
layer {
  name: "relu1"
  type: "ReLU"
  bottom: "bn1"
  top: "relu1"
}
layer {
  name: "pool1"
  type: "Pooling"
  bottom: "relu1"
  top: "pool1"
  pooling_param {
    pool: MAX
    kernel_size: 2
    stride: 2
  }
}
layer {
  name: "conv2"
  type: "Convolution"
  bottom: "pool1"
  top: "conv2"
  param {
    lr_mult: 1
    decay_mult: 1
  }
  param {
    lr_mult: 2
    decay_mult: 0
  }
  convolution_param {
    num_output: 40
    pad: 0
    kernel_size: 3
    group: 1
    stride: 1
    weight_filler {
      type: "gaussian"
      mean: 0
      std: 0.01
    }
    bias_filler {
      type: "constant"
      value: 0.1
    }
  }
}
layer {
  name: "bn2"
  type: "BatchNorm"
  bottom: "conv2"
  top: "bn2"
}
layer {
  name: "relu2"
  type: "ReLU"
  bottom: "bn2"
  top: "relu2"
}
layer {
  name: "pool2"
  type: "Pooling"
  bottom: "relu2"
  top: "pool2"
  pooling_param {
    pool: MAX
    kernel_size: 2
    stride: 2
  }
}
layer {
  name: "conv3"
  type: "Convolution"
  bottom: "pool2"
  top: "conv3"
  param {
    lr_mult: 1
    decay_mult: 1
  }
  param {
    lr_mult: 2
    decay_mult: 0
  }
  convolution_param {
    num_output: 40
    pad: 0
    kernel_size: 3
    group: 1
    stride: 1
    weight_filler {
      type: "gaussian"
      mean: 0
      std: 0.01
    }
    bias_filler {
      type: "constant"
      value: 0.1
    }
  }
}
layer {
  name: "bn3"
  type: "BatchNorm"
  bottom: "conv3"
  top: "bn3"
}
layer {
  name: "relu3"
  type: "ReLU"
  bottom: "bn3"
  top: "relu3"
}
layer {
  name: "pool3"
  type: "Pooling"
  bottom: "relu3"
  top: "pool3"
  pooling_param {
    pool: MAX
    kernel_size: 2
    stride: 2
  }
}
layer {
  name: "flatten"
  type: "Flatten"
  bottom: "pool3"
  top: "flatten"
}
layer {
  name: "drop"
  type: "Dropout"
  bottom: "flatten"
  top: "drop"
  dropout_param {
    dropout_ratio: 0.5
  }
}
layer {
  name: "score"
  type: "InnerProduct"
  bottom: "drop"
  top: "score"
  inner_product_param {
    num_output: 2400
  }
}
layer {
  name: "score_s"
  type: "Sigmoid"
  bottom: "score"
  top: "score_s"
}
layer {
  name: "score2"
  type: "Reshape"
  bottom: "score_s"
  top: "score2"
  reshape_param {
    shape {
      dim: 1
      dim: 2
      dim: 1
      dim: 1200
    }
  }
}
layer {
  name: "loss"
  type: "SoftmaxWithLoss"
  bottom: "score2"
  bottom: "label2"
  top: "loss"
  loss_param {
    normalize: true
  }
}
layer {
  name: "accuracy"
  type: "Accuracy"
  bottom: "score2"
  bottom: "label2"
  top: "accuracy"
}
I0110 19:10:25.122630  5537 layer_factory.hpp:77] Creating layer data
I0110 19:10:25.122678  5537 net.cpp:106] Creating Layer data
I0110 19:10:25.122686  5537 net.cpp:411] data -> data
I0110 19:10:25.123261  5554 db_lmdb.cpp:38] Opened lmdb test2_images_lmdb/
I0110 19:10:25.125375  5537 data_layer.cpp:41] output data size: 1,29,128,128
I0110 19:10:25.128517  5537 net.cpp:150] Setting up data
I0110 19:10:25.128561  5537 net.cpp:157] Top shape: 1 29 128 128 (475136)
I0110 19:10:25.128571  5537 net.cpp:165] Memory required for data: 1900544
I0110 19:10:25.128581  5537 layer_factory.hpp:77] Creating layer label
I0110 19:10:25.128644  5537 net.cpp:106] Creating Layer label
I0110 19:10:25.128659  5537 net.cpp:411] label -> label
I0110 19:10:25.129756  5556 db_lmdb.cpp:38] Opened lmdb test2_labels_lmdb/
I0110 19:10:25.129916  5537 data_layer.cpp:41] output data size: 1,1200,1,1
I0110 19:10:25.130061  5537 net.cpp:150] Setting up label
I0110 19:10:25.130075  5537 net.cpp:157] Top shape: 1 1200 1 1 (1200)
I0110 19:10:25.130080  5537 net.cpp:165] Memory required for data: 1905344
I0110 19:10:25.130087  5537 layer_factory.hpp:77] Creating layer label2
I0110 19:10:25.130102  5537 net.cpp:106] Creating Layer label2
I0110 19:10:25.130112  5537 net.cpp:454] label2 <- label
I0110 19:10:25.130127  5537 net.cpp:411] label2 -> label2
I0110 19:10:25.130175  5537 net.cpp:150] Setting up label2
I0110 19:10:25.130187  5537 net.cpp:157] Top shape: 1 1 1 1200 (1200)
I0110 19:10:25.130190  5537 net.cpp:165] Memory required for data: 1910144
I0110 19:10:25.130194  5537 layer_factory.hpp:77] Creating layer label2_label2_0_split
I0110 19:10:25.130200  5537 net.cpp:106] Creating Layer label2_label2_0_split
I0110 19:10:25.130205  5537 net.cpp:454] label2_label2_0_split <- label2
I0110 19:10:25.130213  5537 net.cpp:411] label2_label2_0_split -> label2_label2_0_split_0
I0110 19:10:25.130219  5537 net.cpp:411] label2_label2_0_split -> label2_label2_0_split_1
I0110 19:10:25.130249  5537 net.cpp:150] Setting up label2_label2_0_split
I0110 19:10:25.130256  5537 net.cpp:157] Top shape: 1 1 1 1200 (1200)
I0110 19:10:25.130261  5537 net.cpp:157] Top shape: 1 1 1 1200 (1200)
I0110 19:10:25.130264  5537 net.cpp:165] Memory required for data: 1919744
I0110 19:10:25.130269  5537 layer_factory.hpp:77] Creating layer conv1
I0110 19:10:25.130278  5537 net.cpp:106] Creating Layer conv1
I0110 19:10:25.130283  5537 net.cpp:454] conv1 <- data
I0110 19:10:25.130288  5537 net.cpp:411] conv1 -> conv1
I0110 19:10:25.133029  5537 net.cpp:150] Setting up conv1
I0110 19:10:25.133071  5537 net.cpp:157] Top shape: 1 40 224 224 (2007040)
I0110 19:10:25.133080  5537 net.cpp:165] Memory required for data: 9947904
I0110 19:10:25.133100  5537 layer_factory.hpp:77] Creating layer bn1
I0110 19:10:25.133116  5537 net.cpp:106] Creating Layer bn1
I0110 19:10:25.133126  5537 net.cpp:454] bn1 <- conv1
I0110 19:10:25.133137  5537 net.cpp:411] bn1 -> bn1
I0110 19:10:25.133378  5537 net.cpp:150] Setting up bn1
I0110 19:10:25.133391  5537 net.cpp:157] Top shape: 1 40 224 224 (2007040)
I0110 19:10:25.133399  5537 net.cpp:165] Memory required for data: 17976064
I0110 19:10:25.133416  5537 layer_factory.hpp:77] Creating layer relu1
I0110 19:10:25.133429  5537 net.cpp:106] Creating Layer relu1
I0110 19:10:25.133436  5537 net.cpp:454] relu1 <- bn1
I0110 19:10:25.133446  5537 net.cpp:411] relu1 -> relu1
I0110 19:10:25.133636  5537 net.cpp:150] Setting up relu1
I0110 19:10:25.133651  5537 net.cpp:157] Top shape: 1 40 224 224 (2007040)
I0110 19:10:25.133658  5537 net.cpp:165] Memory required for data: 26004224
I0110 19:10:25.133662  5537 layer_factory.hpp:77] Creating layer pool1
I0110 19:10:25.133672  5537 net.cpp:106] Creating Layer pool1
I0110 19:10:25.133677  5537 net.cpp:454] pool1 <- relu1
I0110 19:10:25.133683  5537 net.cpp:411] pool1 -> pool1
I0110 19:10:25.133991  5537 net.cpp:150] Setting up pool1
I0110 19:10:25.134004  5537 net.cpp:157] Top shape: 1 40 112 112 (501760)
I0110 19:10:25.134009  5537 net.cpp:165] Memory required for data: 28011264
I0110 19:10:25.134013  5537 layer_factory.hpp:77] Creating layer conv2
I0110 19:10:25.134023  5537 net.cpp:106] Creating Layer conv2
I0110 19:10:25.134028  5537 net.cpp:454] conv2 <- pool1
I0110 19:10:25.134037  5537 net.cpp:411] conv2 -> conv2
I0110 19:10:25.134968  5537 net.cpp:150] Setting up conv2
I0110 19:10:25.134981  5537 net.cpp:157] Top shape: 1 40 110 110 (484000)
I0110 19:10:25.134985  5537 net.cpp:165] Memory required for data: 29947264
I0110 19:10:25.134991  5537 layer_factory.hpp:77] Creating layer bn2
I0110 19:10:25.134999  5537 net.cpp:106] Creating Layer bn2
I0110 19:10:25.135004  5537 net.cpp:454] bn2 <- conv2
I0110 19:10:25.135010  5537 net.cpp:411] bn2 -> bn2
I0110 19:10:25.135149  5537 net.cpp:150] Setting up bn2
I0110 19:10:25.135155  5537 net.cpp:157] Top shape: 1 40 110 110 (484000)
I0110 19:10:25.135159  5537 net.cpp:165] Memory required for data: 31883264
I0110 19:10:25.135169  5537 layer_factory.hpp:77] Creating layer relu2
I0110 19:10:25.135175  5537 net.cpp:106] Creating Layer relu2
I0110 19:10:25.135179  5537 net.cpp:454] relu2 <- bn2
I0110 19:10:25.135185  5537 net.cpp:411] relu2 -> relu2
I0110 19:10:25.135305  5537 net.cpp:150] Setting up relu2
I0110 19:10:25.135314  5537 net.cpp:157] Top shape: 1 40 110 110 (484000)
I0110 19:10:25.135325  5537 net.cpp:165] Memory required for data: 33819264
I0110 19:10:25.135336  5537 layer_factory.hpp:77] Creating layer pool2
I0110 19:10:25.135344  5537 net.cpp:106] Creating Layer pool2
I0110 19:10:25.135349  5537 net.cpp:454] pool2 <- relu2
I0110 19:10:25.135354  5537 net.cpp:411] pool2 -> pool2
I0110 19:10:25.135565  5537 net.cpp:150] Setting up pool2
I0110 19:10:25.135577  5537 net.cpp:157] Top shape: 1 40 55 55 (121000)
I0110 19:10:25.135581  5537 net.cpp:165] Memory required for data: 34303264
I0110 19:10:25.135586  5537 layer_factory.hpp:77] Creating layer conv3
I0110 19:10:25.135594  5537 net.cpp:106] Creating Layer conv3
I0110 19:10:25.135599  5537 net.cpp:454] conv3 <- pool2
I0110 19:10:25.135604  5537 net.cpp:411] conv3 -> conv3
I0110 19:10:25.136428  5537 net.cpp:150] Setting up conv3
I0110 19:10:25.136440  5537 net.cpp:157] Top shape: 1 40 53 53 (112360)
I0110 19:10:25.136445  5537 net.cpp:165] Memory required for data: 34752704
I0110 19:10:25.136451  5537 layer_factory.hpp:77] Creating layer bn3
I0110 19:10:25.136459  5537 net.cpp:106] Creating Layer bn3
I0110 19:10:25.136464  5537 net.cpp:454] bn3 <- conv3
I0110 19:10:25.136469  5537 net.cpp:411] bn3 -> bn3
I0110 19:10:25.136603  5537 net.cpp:150] Setting up bn3
I0110 19:10:25.136611  5537 net.cpp:157] Top shape: 1 40 53 53 (112360)
I0110 19:10:25.136615  5537 net.cpp:165] Memory required for data: 35202144
I0110 19:10:25.136621  5537 layer_factory.hpp:77] Creating layer relu3
I0110 19:10:25.136629  5537 net.cpp:106] Creating Layer relu3
I0110 19:10:25.136634  5537 net.cpp:454] relu3 <- bn3
I0110 19:10:25.136639  5537 net.cpp:411] relu3 -> relu3
I0110 19:10:25.136838  5537 net.cpp:150] Setting up relu3
I0110 19:10:25.136852  5537 net.cpp:157] Top shape: 1 40 53 53 (112360)
I0110 19:10:25.136857  5537 net.cpp:165] Memory required for data: 35651584
I0110 19:10:25.136860  5537 layer_factory.hpp:77] Creating layer pool3
I0110 19:10:25.136867  5537 net.cpp:106] Creating Layer pool3
I0110 19:10:25.136872  5537 net.cpp:454] pool3 <- relu3
I0110 19:10:25.136876  5537 net.cpp:411] pool3 -> pool3
I0110 19:10:25.137006  5537 net.cpp:150] Setting up pool3
I0110 19:10:25.137015  5537 net.cpp:157] Top shape: 1 40 27 27 (29160)
I0110 19:10:25.137020  5537 net.cpp:165] Memory required for data: 35768224
I0110 19:10:25.137024  5537 layer_factory.hpp:77] Creating layer flatten
I0110 19:10:25.137032  5537 net.cpp:106] Creating Layer flatten
I0110 19:10:25.137037  5537 net.cpp:454] flatten <- pool3
I0110 19:10:25.137042  5537 net.cpp:411] flatten -> flatten
I0110 19:10:25.137061  5537 net.cpp:150] Setting up flatten
I0110 19:10:25.137068  5537 net.cpp:157] Top shape: 1 29160 (29160)
I0110 19:10:25.137073  5537 net.cpp:165] Memory required for data: 35884864
I0110 19:10:25.137076  5537 layer_factory.hpp:77] Creating layer drop
I0110 19:10:25.137082  5537 net.cpp:106] Creating Layer drop
I0110 19:10:25.137087  5537 net.cpp:454] drop <- flatten
I0110 19:10:25.137092  5537 net.cpp:411] drop -> drop
I0110 19:10:25.137117  5537 net.cpp:150] Setting up drop
I0110 19:10:25.137125  5537 net.cpp:157] Top shape: 1 29160 (29160)
I0110 19:10:25.137128  5537 net.cpp:165] Memory required for data: 36001504
I0110 19:10:25.137132  5537 layer_factory.hpp:77] Creating layer score
I0110 19:10:25.137138  5537 net.cpp:106] Creating Layer score
I0110 19:10:25.137143  5537 net.cpp:454] score <- drop
I0110 19:10:25.137147  5537 net.cpp:411] score -> score
I0110 19:10:25.235371  5537 net.cpp:150] Setting up score
I0110 19:10:25.235421  5537 net.cpp:157] Top shape: 1 2400 (2400)
I0110 19:10:25.235430  5537 net.cpp:165] Memory required for data: 36011104
I0110 19:10:25.235450  5537 layer_factory.hpp:77] Creating layer score_s
I0110 19:10:25.235473  5537 net.cpp:106] Creating Layer score_s
I0110 19:10:25.235481  5537 net.cpp:454] score_s <- score
I0110 19:10:25.235488  5537 net.cpp:411] score_s -> score_s
I0110 19:10:25.235851  5537 net.cpp:150] Setting up score_s
I0110 19:10:25.235865  5537 net.cpp:157] Top shape: 1 2400 (2400)
I0110 19:10:25.235870  5537 net.cpp:165] Memory required for data: 36020704
I0110 19:10:25.235888  5537 layer_factory.hpp:77] Creating layer score2
I0110 19:10:25.235898  5537 net.cpp:106] Creating Layer score2
I0110 19:10:25.235903  5537 net.cpp:454] score2 <- score_s
I0110 19:10:25.235908  5537 net.cpp:411] score2 -> score2
I0110 19:10:25.235939  5537 net.cpp:150] Setting up score2
I0110 19:10:25.235947  5537 net.cpp:157] Top shape: 1 2 1 1200 (2400)
I0110 19:10:25.235951  5537 net.cpp:165] Memory required for data: 36030304
I0110 19:10:25.235954  5537 layer_factory.hpp:77] Creating layer score2_score2_0_split
I0110 19:10:25.235961  5537 net.cpp:106] Creating Layer score2_score2_0_split
I0110 19:10:25.235965  5537 net.cpp:454] score2_score2_0_split <- score2
I0110 19:10:25.235970  5537 net.cpp:411] score2_score2_0_split -> score2_score2_0_split_0
I0110 19:10:25.235975  5537 net.cpp:411] score2_score2_0_split -> score2_score2_0_split_1
I0110 19:10:25.236006  5537 net.cpp:150] Setting up score2_score2_0_split
I0110 19:10:25.236012  5537 net.cpp:157] Top shape: 1 2 1 1200 (2400)
I0110 19:10:25.236016  5537 net.cpp:157] Top shape: 1 2 1 1200 (2400)
I0110 19:10:25.236019  5537 net.cpp:165] Memory required for data: 36049504
I0110 19:10:25.236023  5537 layer_factory.hpp:77] Creating layer loss
I0110 19:10:25.236028  5537 net.cpp:106] Creating Layer loss
I0110 19:10:25.236032  5537 net.cpp:454] loss <- score2_score2_0_split_0
I0110 19:10:25.236037  5537 net.cpp:454] loss <- label2_label2_0_split_0
I0110 19:10:25.236043  5537 net.cpp:411] loss -> loss
…
