…
stepvalue: 1000000
stepvalue: 2000000
I0111 09:29:57.284737  8418 solver.cpp:81] Creating training net from train_net file: fcn2_train.prototxt
I0111 09:29:57.285225  8418 net.cpp:49] Initializing net from parameters: 
name: "FCN"
force_backward: true
state {
  phase: TRAIN
}
layer {
  name: "data"
  type: "Data"
  top: "data"
  data_param {
    source: "train2_images_lmdb/"
    batch_size: 1
    backend: LMDB
  }
}
layer {
  name: "label"
  type: "Data"
  top: "label"
  data_param {
    source: "train2_labels_lmdb/"
    batch_size: 1
    backend: LMDB
  }
}
layer {
  name: "label2"
  type: "Reshape"
  bottom: "label"
  top: "label2"
  reshape_param {
    shape {
      dim: 1
      dim: 1
      dim: 1
      dim: 1200
    }
  }
}
layer {
  name: "conv1"
  type: "Convolution"
  bottom: "data"
  top: "conv1"
  param {
    lr_mult: 1
    decay_mult: 1
  }
  param {
    lr_mult: 2
    decay_mult: 0
  }
  convolution_param {
    num_output: 40
    pad: 50
    kernel_size: 5
    group: 1
    stride: 1
    weight_filler {
      type: "gaussian"
      mean: 0
      std: 0.01
    }
    bias_filler {
      type: "constant"
      value: 0.1
    }
  }
}
layer {
  name: "bn1"
  type: "BatchNorm"
  bottom: "conv1"
  top: "bn1"
}
layer {
  name: "relu1"
  type: "ReLU"
  bottom: "bn1"
  top: "relu1"
}
layer {
  name: "pool1"
  type: "Pooling"
  bottom: "relu1"
  top: "pool1"
  pooling_param {
    pool: MAX
    kernel_size: 2
    stride: 2
  }
}
layer {
  name: "conv2"
  type: "Convolution"
  bottom: "pool1"
  top: "conv2"
  param {
    lr_mult: 1
    decay_mult: 1
  }
  param {
    lr_mult: 2
    decay_mult: 0
  }
  convolution_param {
    num_output: 40
    pad: 0
    kernel_size: 3
    group: 1
    stride: 1
    weight_filler {
      type: "gaussian"
      mean: 0
      std: 0.01
    }
    bias_filler {
      type: "constant"
      value: 0.1
    }
  }
}
layer {
  name: "bn2"
  type: "BatchNorm"
  bottom: "conv2"
  top: "bn2"
}
layer {
  name: "relu2"
  type: "ReLU"
  bottom: "bn2"
  top: "relu2"
}
layer {
  name: "pool2"
  type: "Pooling"
  bottom: "relu2"
  top: "pool2"
  pooling_param {
    pool: MAX
    kernel_size: 2
    stride: 2
  }
}
layer {
  name: "conv3"
  type: "Convolution"
  bottom: "pool2"
  top: "conv3"
  param {
    lr_mult: 1
    decay_mult: 1
  }
  param {
    lr_mult: 2
    decay_mult: 0
  }
  convolution_param {
    num_output: 40
    pad: 0
    kernel_size: 3
    group: 1
    stride: 1
    weight_filler {
      type: "gaussian"
      mean: 0
      std: 0.01
    }
    bias_filler {
      type: "constant"
      value: 0.1
    }
  }
}
layer {
  name: "bn3"
  type: "BatchNorm"
  bottom: "conv3"
  top: "bn3"
}
layer {
  name: "relu3"
  type: "ReLU"
  bottom: "bn3"
  top: "relu3"
}
layer {
  name: "pool3"
  type: "Pooling"
  bottom: "relu3"
  top: "pool3"
  pooling_param {
    pool: MAX
    kernel_size: 2
    stride: 2
  }
}
layer {
  name: "conv4"
  type: "Convolution"
  bottom: "pool3"
  top: "conv4"
  param {
    lr_mult: 1
    decay_mult: 1
  }
  param {
    lr_mult: 2
    decay_mult: 0
  }
  convolution_param {
    num_output: 40
    pad: 0
    kernel_size: 3
    group: 1
    stride: 1
    weight_filler {
      type: "gaussian"
      mean: 0
      std: 0.01
    }
    bias_filler {
      type: "constant"
      value: 0.1
    }
  }
}
layer {
  name: "bn4"
  type: "BatchNorm"
  bottom: "conv4"
  top: "bn4"
}
layer {
  name: "relu4"
  type: "ReLU"
  bottom: "bn4"
  top: "relu4"
}
layer {
  name: "pool4"
  type: "Pooling"
  bottom: "relu4"
  top: "pool4"
  pooling_param {
    pool: MAX
    kernel_size: 2
    stride: 2
  }
}
layer {
  name: "flatten"
  type: "Flatten"
  bottom: "pool4"
  top: "flatten"
}
layer {
  name: "drop"
  type: "Dropout"
  bottom: "flatten"
  top: "drop"
  dropout_param {
    dropout_ratio: 0.5
  }
}
layer {
  name: "score"
  type: "InnerProduct"
  bottom: "drop"
  top: "score"
  inner_product_param {
    num_output: 2400
  }
}
layer {
  name: "score_s"
  type: "Sigmoid"
  bottom: "score"
  top: "score_s"
}
layer {
  name: "score2"
  type: "Reshape"
  bottom: "score_s"
  top: "score2"
  reshape_param {
    shape {
      dim: 1
      dim: 2
      dim: 1
      dim: 1200
    }
  }
}
layer {
  name: "loss"
  type: "SoftmaxWithLoss"
  bottom: "score2"
  bottom: "label2"
  top: "loss"
  loss_param {
    normalize: true
  }
}
I0111 09:29:57.285315  8418 layer_factory.hpp:77] Creating layer data
I0111 09:29:57.285693  8418 net.cpp:106] Creating Layer data
I0111 09:29:57.285706  8418 net.cpp:411] data -> data
I0111 09:29:57.286767  8430 db_lmdb.cpp:38] Opened lmdb train2_images_lmdb/
I0111 09:29:57.296800  8418 data_layer.cpp:41] output data size: 1,29,128,128
I0111 09:29:57.299626  8418 net.cpp:150] Setting up data
I0111 09:29:57.299664  8418 net.cpp:157] Top shape: 1 29 128 128 (475136)
I0111 09:29:57.299669  8418 net.cpp:165] Memory required for data: 1900544
I0111 09:29:57.299677  8418 layer_factory.hpp:77] Creating layer label
I0111 09:29:57.299713  8418 net.cpp:106] Creating Layer label
I0111 09:29:57.299721  8418 net.cpp:411] label -> label
I0111 09:29:57.300827  8432 db_lmdb.cpp:38] Opened lmdb train2_labels_lmdb/
I0111 09:29:57.300915  8418 data_layer.cpp:41] output data size: 1,1200,1,1
I0111 09:29:57.301367  8418 net.cpp:150] Setting up label
I0111 09:29:57.301381  8418 net.cpp:157] Top shape: 1 1200 1 1 (1200)
I0111 09:29:57.301385  8418 net.cpp:165] Memory required for data: 1905344
I0111 09:29:57.301391  8418 layer_factory.hpp:77] Creating layer label2
I0111 09:29:57.301414  8418 net.cpp:106] Creating Layer label2
I0111 09:29:57.301420  8418 net.cpp:454] label2 <- label
I0111 09:29:57.301436  8418 net.cpp:411] label2 -> label2
I0111 09:29:57.301476  8418 net.cpp:150] Setting up label2
I0111 09:29:57.301482  8418 net.cpp:157] Top shape: 1 1 1 1200 (1200)
I0111 09:29:57.301486  8418 net.cpp:165] Memory required for data: 1910144
I0111 09:29:57.301489  8418 layer_factory.hpp:77] Creating layer conv1
I0111 09:29:57.301502  8418 net.cpp:106] Creating Layer conv1
I0111 09:29:57.301506  8418 net.cpp:454] conv1 <- data
I0111 09:29:57.301514  8418 net.cpp:411] conv1 -> conv1
I0111 09:29:57.390337  8418 net.cpp:150] Setting up conv1
I0111 09:29:57.390375  8418 net.cpp:157] Top shape: 1 40 224 224 (2007040)
I0111 09:29:57.390379  8418 net.cpp:165] Memory required for data: 9938304
I0111 09:29:57.390398  8418 layer_factory.hpp:77] Creating layer bn1
I0111 09:29:57.390413  8418 net.cpp:106] Creating Layer bn1
I0111 09:29:57.390419  8418 net.cpp:454] bn1 <- conv1
I0111 09:29:57.390427  8418 net.cpp:411] bn1 -> bn1
I0111 09:29:57.390581  8418 net.cpp:150] Setting up bn1
I0111 09:29:57.390588  8418 net.cpp:157] Top shape: 1 40 224 224 (2007040)
I0111 09:29:57.390593  8418 net.cpp:165] Memory required for data: 17966464
I0111 09:29:57.390601  8418 layer_factory.hpp:77] Creating layer relu1
I0111 09:29:57.390607  8418 net.cpp:106] Creating Layer relu1
I0111 09:29:57.390611  8418 net.cpp:454] relu1 <- bn1
I0111 09:29:57.390615  8418 net.cpp:411] relu1 -> relu1
I0111 09:29:57.390734  8418 net.cpp:150] Setting up relu1
I0111 09:29:57.390743  8418 net.cpp:157] Top shape: 1 40 224 224 (2007040)
I0111 09:29:57.390746  8418 net.cpp:165] Memory required for data: 25994624
I0111 09:29:57.390749  8418 layer_factory.hpp:77] Creating layer pool1
I0111 09:29:57.390755  8418 net.cpp:106] Creating Layer pool1
I0111 09:29:57.390759  8418 net.cpp:454] pool1 <- relu1
I0111 09:29:57.390763  8418 net.cpp:411] pool1 -> pool1
I0111 09:29:57.390971  8418 net.cpp:150] Setting up pool1
I0111 09:29:57.390982  8418 net.cpp:157] Top shape: 1 40 112 112 (501760)
I0111 09:29:57.390986  8418 net.cpp:165] Memory required for data: 28001664
I0111 09:29:57.390990  8418 layer_factory.hpp:77] Creating layer conv2
I0111 09:29:57.391002  8418 net.cpp:106] Creating Layer conv2
I0111 09:29:57.391012  8418 net.cpp:454] conv2 <- pool1
I0111 09:29:57.391017  8418 net.cpp:411] conv2 -> conv2
I0111 09:29:57.392225  8418 net.cpp:150] Setting up conv2
I0111 09:29:57.392236  8418 net.cpp:157] Top shape: 1 40 110 110 (484000)
I0111 09:29:57.392241  8418 net.cpp:165] Memory required for data: 29937664
I0111 09:29:57.392246  8418 layer_factory.hpp:77] Creating layer bn2
I0111 09:29:57.392253  8418 net.cpp:106] Creating Layer bn2
I0111 09:29:57.392257  8418 net.cpp:454] bn2 <- conv2
I0111 09:29:57.392263  8418 net.cpp:411] bn2 -> bn2
I0111 09:29:57.392391  8418 net.cpp:150] Setting up bn2
I0111 09:29:57.392398  8418 net.cpp:157] Top shape: 1 40 110 110 (484000)
I0111 09:29:57.392401  8418 net.cpp:165] Memory required for data: 31873664
I0111 09:29:57.392410  8418 layer_factory.hpp:77] Creating layer relu2
I0111 09:29:57.392415  8418 net.cpp:106] Creating Layer relu2
I0111 09:29:57.392417  8418 net.cpp:454] relu2 <- bn2
I0111 09:29:57.392422  8418 net.cpp:411] relu2 -> relu2
I0111 09:29:57.392540  8418 net.cpp:150] Setting up relu2
I0111 09:29:57.392549  8418 net.cpp:157] Top shape: 1 40 110 110 (484000)
I0111 09:29:57.392552  8418 net.cpp:165] Memory required for data: 33809664
I0111 09:29:57.392555  8418 layer_factory.hpp:77] Creating layer pool2
I0111 09:29:57.392561  8418 net.cpp:106] Creating Layer pool2
I0111 09:29:57.392565  8418 net.cpp:454] pool2 <- relu2
I0111 09:29:57.392570  8418 net.cpp:411] pool2 -> pool2
I0111 09:29:57.392768  8418 net.cpp:150] Setting up pool2
I0111 09:29:57.392778  8418 net.cpp:157] Top shape: 1 40 55 55 (121000)
I0111 09:29:57.392781  8418 net.cpp:165] Memory required for data: 34293664
I0111 09:29:57.392786  8418 layer_factory.hpp:77] Creating layer conv3
I0111 09:29:57.392793  8418 net.cpp:106] Creating Layer conv3
I0111 09:29:57.392796  8418 net.cpp:454] conv3 <- pool2
I0111 09:29:57.392802  8418 net.cpp:411] conv3 -> conv3
I0111 09:29:57.393678  8418 net.cpp:150] Setting up conv3
I0111 09:29:57.393690  8418 net.cpp:157] Top shape: 1 40 53 53 (112360)
I0111 09:29:57.393694  8418 net.cpp:165] Memory required for data: 34743104
I0111 09:29:57.393699  8418 layer_factory.hpp:77] Creating layer bn3
I0111 09:29:57.393704  8418 net.cpp:106] Creating Layer bn3
I0111 09:29:57.393708  8418 net.cpp:454] bn3 <- conv3
I0111 09:29:57.393712  8418 net.cpp:411] bn3 -> bn3
I0111 09:29:57.393836  8418 net.cpp:150] Setting up bn3
I0111 09:29:57.393841  8418 net.cpp:157] Top shape: 1 40 53 53 (112360)
I0111 09:29:57.393844  8418 net.cpp:165] Memory required for data: 35192544
I0111 09:29:57.393851  8418 layer_factory.hpp:77] Creating layer relu3
I0111 09:29:57.393857  8418 net.cpp:106] Creating Layer relu3
I0111 09:29:57.393859  8418 net.cpp:454] relu3 <- bn3
I0111 09:29:57.393864  8418 net.cpp:411] relu3 -> relu3
I0111 09:29:57.393985  8418 net.cpp:150] Setting up relu3
I0111 09:29:57.393993  8418 net.cpp:157] Top shape: 1 40 53 53 (112360)
I0111 09:29:57.393996  8418 net.cpp:165] Memory required for data: 35641984
I0111 09:29:57.394001  8418 layer_factory.hpp:77] Creating layer pool3
I0111 09:29:57.394006  8418 net.cpp:106] Creating Layer pool3
I0111 09:29:57.394009  8418 net.cpp:454] pool3 <- relu3
I0111 09:29:57.394014  8418 net.cpp:411] pool3 -> pool3
I0111 09:29:57.394208  8418 net.cpp:150] Setting up pool3
I0111 09:29:57.394218  8418 net.cpp:157] Top shape: 1 40 27 27 (29160)
I0111 09:29:57.394222  8418 net.cpp:165] Memory required for data: 35758624
I0111 09:29:57.394225  8418 layer_factory.hpp:77] Creating layer conv4
I0111 09:29:57.394232  8418 net.cpp:106] Creating Layer conv4
I0111 09:29:57.394235  8418 net.cpp:454] conv4 <- pool3
I0111 09:29:57.394242  8418 net.cpp:411] conv4 -> conv4
I0111 09:29:57.395284  8418 net.cpp:150] Setting up conv4
I0111 09:29:57.395297  8418 net.cpp:157] Top shape: 1 40 25 25 (25000)
I0111 09:29:57.395299  8418 net.cpp:165] Memory required for data: 35858624
I0111 09:29:57.395308  8418 layer_factory.hpp:77] Creating layer bn4
I0111 09:29:57.395318  8418 net.cpp:106] Creating Layer bn4
I0111 09:29:57.395325  8418 net.cpp:454] bn4 <- conv4
I0111 09:29:57.395335  8418 net.cpp:411] bn4 -> bn4
I0111 09:29:57.395468  8418 net.cpp:150] Setting up bn4
I0111 09:29:57.395476  8418 net.cpp:157] Top shape: 1 40 25 25 (25000)
I0111 09:29:57.395479  8418 net.cpp:165] Memory required for data: 35958624
I0111 09:29:57.395486  8418 layer_factory.hpp:77] Creating layer relu4
I0111 09:29:57.395491  8418 net.cpp:106] Creating Layer relu4
I0111 09:29:57.395495  8418 net.cpp:454] relu4 <- bn4
I0111 09:29:57.395499  8418 net.cpp:411] relu4 -> relu4
I0111 09:29:57.395694  8418 net.cpp:150] Setting up relu4
I0111 09:29:57.395704  8418 net.cpp:157] Top shape: 1 40 25 25 (25000)
I0111 09:29:57.395707  8418 net.cpp:165] Memory required for data: 36058624
I0111 09:29:57.395711  8418 layer_factory.hpp:77] Creating layer pool4
I0111 09:29:57.395717  8418 net.cpp:106] Creating Layer pool4
I0111 09:29:57.395720  8418 net.cpp:454] pool4 <- relu4
I0111 09:29:57.395726  8418 net.cpp:411] pool4 -> pool4
I0111 09:29:57.395923  8418 net.cpp:150] Setting up pool4
I0111 09:29:57.395932  8418 net.cpp:157] Top shape: 1 40 13 13 (6760)
I0111 09:29:57.395936  8418 net.cpp:165] Memory required for data: 36085664
I0111 09:29:57.395939  8418 layer_factory.hpp:77] Creating layer flatten
I0111 09:29:57.395944  8418 net.cpp:106] Creating Layer flatten
I0111 09:29:57.395947  8418 net.cpp:454] flatten <- pool4
I0111 09:29:57.395953  8418 net.cpp:411] flatten -> flatten
I0111 09:29:57.395972  8418 net.cpp:150] Setting up flatten
I0111 09:29:57.395977  8418 net.cpp:157] Top shape: 1 6760 (6760)
I0111 09:29:57.395980  8418 net.cpp:165] Memory required for data: 36112704
I0111 09:29:57.395983  8418 layer_factory.hpp:77] Creating layer drop
I0111 09:29:57.395989  8418 net.cpp:106] Creating Layer drop
I0111 09:29:57.395992  8418 net.cpp:454] drop <- flatten
I0111 09:29:57.395998  8418 net.cpp:411] drop -> drop
I0111 09:29:57.396024  8418 net.cpp:150] Setting up drop
I0111 09:29:57.396029  8418 net.cpp:157] Top shape: 1 6760 (6760)
I0111 09:29:57.396033  8418 net.cpp:165] Memory required for data: 36139744
I0111 09:29:57.396035  8418 layer_factory.hpp:77] Creating layer score
I0111 09:29:57.396041  8418 net.cpp:106] Creating Layer score
I0111 09:29:57.396044  8418 net.cpp:454] score <- drop
I0111 09:29:57.396049  8418 net.cpp:411] score -> score
I0111 09:29:57.419788  8418 net.cpp:150] Setting up score
I0111 09:29:57.419822  8418 net.cpp:157] Top shape: 1 2400 (2400)
I0111 09:29:57.419826  8418 net.cpp:165] Memory required for data: 36149344
I0111 09:29:57.419836  8418 layer_factory.hpp:77] Creating layer score_s
I0111 09:29:57.419843  8418 net.cpp:106] Creating Layer score_s
I0111 09:29:57.419848  8418 net.cpp:454] score_s <- score
I0111 09:29:57.419857  8418 net.cpp:411] score_s -> score_s
I0111 09:29:57.420022  8418 net.cpp:150] Setting up score_s
I0111 09:29:57.420028  8418 net.cpp:157] Top shape: 1 2400 (2400)
I0111 09:29:57.420032  8418 net.cpp:165] Memory required for data: 36158944
I0111 09:29:57.420035  8418 layer_factory.hpp:77] Creating layer score2
I0111 09:29:57.420042  8418 net.cpp:106] Creating Layer score2
I0111 09:29:57.420047  8418 net.cpp:454] score2 <- score_s
I0111 09:29:57.420052  8418 net.cpp:411] score2 -> score2
I0111 09:29:57.420070  8418 net.cpp:150] Setting up score2
I0111 09:29:57.420076  8418 net.cpp:157] Top shape: 1 2 1 1200 (2400)
I0111 09:29:57.420079  8418 net.cpp:165] Memory required for data: 36168544
I0111 09:29:57.420083  8418 layer_factory.hpp:77] Creating layer loss
I0111 09:29:57.421926  8418 net.cpp:106] Creating Layer loss
I0111 09:29:57.421937  8418 net.cpp:454] loss <- score2
I0111 09:29:57.421944  8418 net.cpp:454] loss <- label2
I0111 09:29:57.421955  8418 net.cpp:411] loss -> loss
I0111 09:29:57.421967  8418 layer_factory.hpp:77] Creating layer loss
…
I0111 09:29:57.422432  8418 net.cpp:283] Network initialization done.
I0111 09:29:57.422839  8418 solver.cpp:181] Creating test net (#0) specified by test_net file: fcn2_test.prototxt
I0111 09:29:57.422971  8418 net.cpp:49] Initializing net from parameters: 
name: "FCN"
force_backward: true
state {
  phase: TEST
}
layer {
  name: "data"
  type: "Data"
  top: "data"
  data_param {
    source: "test2_images_lmdb/"
    batch_size: 1
    backend: LMDB
  }
}
layer {
  name: "label"
  type: "Data"
  top: "label"
  data_param {
    source: "test2_labels_lmdb/"
    batch_size: 1
    backend: LMDB
  }
}
layer {
  name: "label2"
  type: "Reshape"
  bottom: "label"
  top: "label2"
  reshape_param {
    shape {
      dim: 1
      dim: 1
      dim: 1
      dim: 1200
    }
  }
}
layer {
  name: "conv1"
  type: "Convolution"
  bottom: "data"
  top: "conv1"
  param {
    lr_mult: 1
    decay_mult: 1
  }
  param {
    lr_mult: 2
    decay_mult: 0
  }
  convolution_param {
    num_output: 40
    pad: 50
    kernel_size: 5
    group: 1
    stride: 1
    weight_filler {
      type: "gaussian"
      mean: 0
      std: 0.01
    }
    bias_filler {
      type: "constant"
      value: 0.1
    }
  }
}
layer {
  name: "bn1"
  type: "BatchNorm"
  bottom: "conv1"
  top: "bn1"
}
layer {
  name: "relu1"
  type: "ReLU"
  bottom: "bn1"
  top: "relu1"
}
layer {
  name: "pool1"
  type: "Pooling"
  bottom: "relu1"
  top: "pool1"
  pooling_param {
    pool: MAX
    kernel_size: 2
    stride: 2
  }
}
layer {
  name: "conv2"
  type: "Convolution"
  bottom: "pool1"
  top: "conv2"
  param {
    lr_mult: 1
    decay_mult: 1
  }
  param {
    lr_mult: 2
    decay_mult: 0
  }
  convolution_param {
    num_output: 40
    pad: 0
    kernel_size: 3
    group: 1
    stride: 1
    weight_filler {
      type: "gaussian"
      mean: 0
      std: 0.01
    }
    bias_filler {
      type: "constant"
      value: 0.1
    }
  }
}
layer {
  name: "bn2"
  type: "BatchNorm"
  bottom: "conv2"
  top: "bn2"
}
layer {
  name: "relu2"
  type: "ReLU"
  bottom: "bn2"
  top: "relu2"
}
layer {
  name: "pool2"
  type: "Pooling"
  bottom: "relu2"
  top: "pool2"
  pooling_param {
    pool: MAX
    kernel_size: 2
    stride: 2
  }
}
layer {
  name: "conv3"
  type: "Convolution"
  bottom: "pool2"
  top: "conv3"
  param {
    lr_mult: 1
    decay_mult: 1
  }
  param {
    lr_mult: 2
    decay_mult: 0
  }
  convolution_param {
    num_output: 40
    pad: 0
    kernel_size: 3
    group: 1
    stride: 1
    weight_filler {
      type: "gaussian"
      mean: 0
      std: 0.01
    }
    bias_filler {
      type: "constant"
      value: 0.1
    }
  }
}
layer {
  name: "bn3"
  type: "BatchNorm"
  bottom: "conv3"
  top: "bn3"
}
layer {
  name: "relu3"
  type: "ReLU"
  bottom: "bn3"
  top: "relu3"
}
layer {
  name: "pool3"
  type: "Pooling"
  bottom: "relu3"
  top: "pool3"
  pooling_param {
    pool: MAX
    kernel_size: 2
    stride: 2
  }
}
layer {
  name: "conv4"
  type: "Convolution"
  bottom: "pool3"
  top: "conv4"
  param {
    lr_mult: 1
    decay_mult: 1
  }
  param {
    lr_mult: 2
    decay_mult: 0
  }
  convolution_param {
    num_output: 40
    pad: 0
    kernel_size: 3
    group: 1
    stride: 1
    weight_filler {
      type: "gaussian"
      mean: 0
      std: 0.01
    }
    bias_filler {
      type: "constant"
      value: 0.1
    }
  }
}
layer {
  name: "bn4"
  type: "BatchNorm"
  bottom: "conv4"
  top: "bn4"
}
layer {
  name: "relu4"
  type: "ReLU"
  bottom: "bn4"
  top: "relu4"
}
layer {
  name: "pool4"
  type: "Pooling"
  bottom: "relu4"
  top: "pool4"
  pooling_param {
    pool: MAX
    kernel_size: 2
    stride: 2
  }
}
layer {
  name: "flatten"
  type: "Flatten"
  bottom: "pool4"
  top: "flatten"
}
layer {
  name: "drop"
  type: "Dropout"
  bottom: "flatten"
  top: "drop"
  dropout_param {
    dropout_ratio: 0.5
  }
}
layer {
  name: "score"
  type: "InnerProduct"
  bottom: "drop"
  top: "score"
  inner_product_param {
    num_output: 2400
  }
}
layer {
  name: "score_s"
  type: "Sigmoid"
  bottom: "score"
  top: "score_s"
}
layer {
  name: "score2"
  type: "Reshape"
  bottom: "score_s"
  top: "score2"
  reshape_param {
    shape {
      dim: 1
      dim: 2
      dim: 1
      dim: 1200
    }
  }
}
layer {
  name: "loss"
  type: "SoftmaxWithLoss"
  bottom: "score2"
  bottom: "label2"
  top: "loss"
  loss_param {
    normalize: true
  }
}
layer {
  name: "accuracy"
  type: "Accuracy"
  bottom: "score2"
  bottom: "label2"
  top: "accuracy"
}
I0111 09:29:57.423058  8418 layer_factory.hpp:77] Creating layer data
I0111 09:29:57.423205  8418 net.cpp:106] Creating Layer data
I0111 09:29:57.423213  8418 net.cpp:411] data -> data
I0111 09:29:57.424314  8434 db_lmdb.cpp:38] Opened lmdb test2_images_lmdb/
I0111 09:29:57.430529  8418 data_layer.cpp:41] output data size: 1,29,128,128
I0111 09:29:57.432770  8418 net.cpp:150] Setting up data
I0111 09:29:57.432798  8418 net.cpp:157] Top shape: 1 29 128 128 (475136)
I0111 09:29:57.432803  8418 net.cpp:165] Memory required for data: 1900544
I0111 09:29:57.432809  8418 layer_factory.hpp:77] Creating layer label
I0111 09:29:57.432852  8418 net.cpp:106] Creating Layer label
I0111 09:29:57.432868  8418 net.cpp:411] label -> label
I0111 09:29:57.435600  8436 db_lmdb.cpp:38] Opened lmdb test2_labels_lmdb/
I0111 09:29:57.436280  8418 data_layer.cpp:41] output data size: 1,1200,1,1
I0111 09:29:57.436399  8418 net.cpp:150] Setting up label
I0111 09:29:57.436410  8418 net.cpp:157] Top shape: 1 1200 1 1 (1200)
I0111 09:29:57.436414  8418 net.cpp:165] Memory required for data: 1905344
I0111 09:29:57.436419  8418 layer_factory.hpp:77] Creating layer label2
I0111 09:29:57.436430  8418 net.cpp:106] Creating Layer label2
I0111 09:29:57.436435  8418 net.cpp:454] label2 <- label
I0111 09:29:57.436442  8418 net.cpp:411] label2 -> label2
I0111 09:29:57.436518  8418 net.cpp:150] Setting up label2
I0111 09:29:57.436527  8418 net.cpp:157] Top shape: 1 1 1 1200 (1200)
I0111 09:29:57.436530  8418 net.cpp:165] Memory required for data: 1910144
I0111 09:29:57.436533  8418 layer_factory.hpp:77] Creating layer label2_label2_0_split
I0111 09:29:57.436539  8418 net.cpp:106] Creating Layer label2_label2_0_split
I0111 09:29:57.436542  8418 net.cpp:454] label2_label2_0_split <- label2
I0111 09:29:57.436550  8418 net.cpp:411] label2_label2_0_split -> label2_label2_0_split_0
I0111 09:29:57.436561  8418 net.cpp:411] label2_label2_0_split -> label2_label2_0_split_1
I0111 09:29:57.436588  8418 net.cpp:150] Setting up label2_label2_0_split
I0111 09:29:57.436594  8418 net.cpp:157] Top shape: 1 1 1 1200 (1200)
I0111 09:29:57.436597  8418 net.cpp:157] Top shape: 1 1 1 1200 (1200)
I0111 09:29:57.436600  8418 net.cpp:165] Memory required for data: 1919744
I0111 09:29:57.436604  8418 layer_factory.hpp:77] Creating layer conv1
I0111 09:29:57.436614  8418 net.cpp:106] Creating Layer conv1
I0111 09:29:57.436617  8418 net.cpp:454] conv1 <- data
I0111 09:29:57.436622  8418 net.cpp:411] conv1 -> conv1
I0111 09:29:57.437980  8418 net.cpp:150] Setting up conv1
I0111 09:29:57.437991  8418 net.cpp:157] Top shape: 1 40 224 224 (2007040)
I0111 09:29:57.437995  8418 net.cpp:165] Memory required for data: 9947904
I0111 09:29:57.438004  8418 layer_factory.hpp:77] Creating layer bn1
I0111 09:29:57.438009  8418 net.cpp:106] Creating Layer bn1
I0111 09:29:57.438014  8418 net.cpp:454] bn1 <- conv1
I0111 09:29:57.438019  8418 net.cpp:411] bn1 -> bn1
I0111 09:29:57.438177  8418 net.cpp:150] Setting up bn1
I0111 09:29:57.438184  8418 net.cpp:157] Top shape: 1 40 224 224 (2007040)
I0111 09:29:57.438186  8418 net.cpp:165] Memory required for data: 17976064
I0111 09:29:57.438196  8418 layer_factory.hpp:77] Creating layer relu1
I0111 09:29:57.438202  8418 net.cpp:106] Creating Layer relu1
I0111 09:29:57.438205  8418 net.cpp:454] relu1 <- bn1
I0111 09:29:57.438210  8418 net.cpp:411] relu1 -> relu1
I0111 09:29:57.438331  8418 net.cpp:150] Setting up relu1
I0111 09:29:57.438339  8418 net.cpp:157] Top shape: 1 40 224 224 (2007040)
I0111 09:29:57.438344  8418 net.cpp:165] Memory required for data: 26004224
I0111 09:29:57.438347  8418 layer_factory.hpp:77] Creating layer pool1
I0111 09:29:57.438354  8418 net.cpp:106] Creating Layer pool1
I0111 09:29:57.438356  8418 net.cpp:454] pool1 <- relu1
I0111 09:29:57.438361  8418 net.cpp:411] pool1 -> pool1
I0111 09:29:57.438570  8418 net.cpp:150] Setting up pool1
I0111 09:29:57.438580  8418 net.cpp:157] Top shape: 1 40 112 112 (501760)
I0111 09:29:57.438582  8418 net.cpp:165] Memory required for data: 28011264
I0111 09:29:57.438586  8418 layer_factory.hpp:77] Creating layer conv2
I0111 09:29:57.438594  8418 net.cpp:106] Creating Layer conv2
I0111 09:29:57.438598  8418 net.cpp:454] conv2 <- pool1
I0111 09:29:57.438603  8418 net.cpp:411] conv2 -> conv2
I0111 09:29:57.439435  8418 net.cpp:150] Setting up conv2
I0111 09:29:57.439445  8418 net.cpp:157] Top shape: 1 40 110 110 (484000)
I0111 09:29:57.439450  8418 net.cpp:165] Memory required for data: 29947264
I0111 09:29:57.439460  8418 layer_factory.hpp:77] Creating layer bn2
I0111 09:29:57.439471  8418 net.cpp:106] Creating Layer bn2
I0111 09:29:57.439477  8418 net.cpp:454] bn2 <- conv2
I0111 09:29:57.439483  8418 net.cpp:411] bn2 -> bn2
I0111 09:29:57.439620  8418 net.cpp:150] Setting up bn2
I0111 09:29:57.439627  8418 net.cpp:157] Top shape: 1 40 110 110 (484000)
I0111 09:29:57.439630  8418 net.cpp:165] Memory required for data: 31883264
I0111 09:29:57.439638  8418 layer_factory.hpp:77] Creating layer relu2
I0111 09:29:57.439643  8418 net.cpp:106] Creating Layer relu2
I0111 09:29:57.439646  8418 net.cpp:454] relu2 <- bn2
I0111 09:29:57.439651  8418 net.cpp:411] relu2 -> relu2
I0111 09:29:57.439849  8418 net.cpp:150] Setting up relu2
I0111 09:29:57.439859  8418 net.cpp:157] Top shape: 1 40 110 110 (484000)
I0111 09:29:57.439863  8418 net.cpp:165] Memory required for data: 33819264
I0111 09:29:57.439867  8418 layer_factory.hpp:77] Creating layer pool2
I0111 09:29:57.439874  8418 net.cpp:106] Creating Layer pool2
I0111 09:29:57.439878  8418 net.cpp:454] pool2 <- relu2
I0111 09:29:57.439882  8418 net.cpp:411] pool2 -> pool2
I0111 09:29:57.440004  8418 net.cpp:150] Setting up pool2
I0111 09:29:57.440012  8418 net.cpp:157] Top shape: 1 40 55 55 (121000)
I0111 09:29:57.440016  8418 net.cpp:165] Memory required for data: 34303264
I0111 09:29:57.440018  8418 layer_factory.hpp:77] Creating layer conv3
I0111 09:29:57.440038  8418 net.cpp:106] Creating Layer conv3
I0111 09:29:57.440042  8418 net.cpp:454] conv3 <- pool2
I0111 09:29:57.440047  8418 net.cpp:411] conv3 -> conv3
I0111 09:29:57.440932  8418 net.cpp:150] Setting up conv3
I0111 09:29:57.440944  8418 net.cpp:157] Top shape: 1 40 53 53 (112360)
I0111 09:29:57.440948  8418 net.cpp:165] Memory required for data: 34752704
I0111 09:29:57.440953  8418 layer_factory.hpp:77] Creating layer bn3
I0111 09:29:57.440958  8418 net.cpp:106] Creating Layer bn3
I0111 09:29:57.440961  8418 net.cpp:454] bn3 <- conv3
I0111 09:29:57.440968  8418 net.cpp:411] bn3 -> bn3
I0111 09:29:57.441099  8418 net.cpp:150] Setting up bn3
I0111 09:29:57.441105  8418 net.cpp:157] Top shape: 1 40 53 53 (112360)
I0111 09:29:57.441108  8418 net.cpp:165] Memory required for data: 35202144
I0111 09:29:57.441114  8418 layer_factory.hpp:77] Creating layer relu3
I0111 09:29:57.441120  8418 net.cpp:106] Creating Layer relu3
I0111 09:29:57.441123  8418 net.cpp:454] relu3 <- bn3
I0111 09:29:57.441128  8418 net.cpp:411] relu3 -> relu3
I0111 09:29:57.441325  8418 net.cpp:150] Setting up relu3
I0111 09:29:57.441335  8418 net.cpp:157] Top shape: 1 40 53 53 (112360)
I0111 09:29:57.441339  8418 net.cpp:165] Memory required for data: 35651584
I0111 09:29:57.441342  8418 layer_factory.hpp:77] Creating layer pool3
I0111 09:29:57.441349  8418 net.cpp:106] Creating Layer pool3
I0111 09:29:57.441352  8418 net.cpp:454] pool3 <- relu3
I0111 09:29:57.441356  8418 net.cpp:411] pool3 -> pool3
I0111 09:29:57.441510  8418 net.cpp:150] Setting up pool3
I0111 09:29:57.441521  8418 net.cpp:157] Top shape: 1 40 27 27 (29160)
I0111 09:29:57.441524  8418 net.cpp:165] Memory required for data: 35768224
I0111 09:29:57.441529  8418 layer_factory.hpp:77] Creating layer conv4
I0111 09:29:57.441537  8418 net.cpp:106] Creating Layer conv4
I0111 09:29:57.441541  8418 net.cpp:454] conv4 <- pool3
I0111 09:29:57.441547  8418 net.cpp:411] conv4 -> conv4
I0111 09:29:57.442684  8418 net.cpp:150] Setting up conv4
I0111 09:29:57.442705  8418 net.cpp:157] Top shape: 1 40 25 25 (25000)
I0111 09:29:57.442709  8418 net.cpp:165] Memory required for data: 35868224
I0111 09:29:57.442725  8418 layer_factory.hpp:77] Creating layer bn4
I0111 09:29:57.442734  8418 net.cpp:106] Creating Layer bn4
I0111 09:29:57.442737  8418 net.cpp:454] bn4 <- conv4
I0111 09:29:57.442744  8418 net.cpp:411] bn4 -> bn4
I0111 09:29:57.442883  8418 net.cpp:150] Setting up bn4
I0111 09:29:57.442889  8418 net.cpp:157] Top shape: 1 40 25 25 (25000)
I0111 09:29:57.442893  8418 net.cpp:165] Memory required for data: 35968224
I0111 09:29:57.442899  8418 layer_factory.hpp:77] Creating layer relu4
I0111 09:29:57.442906  8418 net.cpp:106] Creating Layer relu4
I0111 09:29:57.442909  8418 net.cpp:454] relu4 <- bn4
I0111 09:29:57.442914  8418 net.cpp:411] relu4 -> relu4
I0111 09:29:57.443156  8418 net.cpp:150] Setting up relu4
I0111 09:29:57.443169  8418 net.cpp:157] Top shape: 1 40 25 25 (25000)
I0111 09:29:57.443176  8418 net.cpp:165] Memory required for data: 36068224
I0111 09:29:57.443181  8418 layer_factory.hpp:77] Creating layer pool4
I0111 09:29:57.443191  8418 net.cpp:106] Creating Layer pool4
I0111 09:29:57.443195  8418 net.cpp:454] pool4 <- relu4
I0111 09:29:57.443203  8418 net.cpp:411] pool4 -> pool4
I0111 09:29:57.443341  8418 net.cpp:150] Setting up pool4
I0111 09:29:57.443351  8418 net.cpp:157] Top shape: 1 40 13 13 (6760)
I0111 09:29:57.443353  8418 net.cpp:165] Memory required for data: 36095264
I0111 09:29:57.443357  8418 layer_factory.hpp:77] Creating layer flatten
I0111 09:29:57.443362  8418 net.cpp:106] Creating Layer flatten
I0111 09:29:57.443366  8418 net.cpp:454] flatten <- pool4
I0111 09:29:57.443370  8418 net.cpp:411] flatten -> flatten
I0111 09:29:57.443388  8418 net.cpp:150] Setting up flatten
I0111 09:29:57.443393  8418 net.cpp:157] Top shape: 1 6760 (6760)
I0111 09:29:57.443397  8418 net.cpp:165] Memory required for data: 36122304
I0111 09:29:57.443399  8418 layer_factory.hpp:77] Creating layer drop
I0111 09:29:57.443405  8418 net.cpp:106] Creating Layer drop
I0111 09:29:57.443421  8418 net.cpp:454] drop <- flatten
I0111 09:29:57.443428  8418 net.cpp:411] drop -> drop
I0111 09:29:57.443462  8418 net.cpp:150] Setting up drop
I0111 09:29:57.443470  8418 net.cpp:157] Top shape: 1 6760 (6760)
I0111 09:29:57.443472  8418 net.cpp:165] Memory required for data: 36149344
I0111 09:29:57.443475  8418 layer_factory.hpp:77] Creating layer score
I0111 09:29:57.443481  8418 net.cpp:106] Creating Layer score
I0111 09:29:57.443485  8418 net.cpp:454] score <- drop
I0111 09:29:57.443490  8418 net.cpp:411] score -> score
I0111 09:29:57.468641  8418 net.cpp:150] Setting up score
I0111 09:29:57.468688  8418 net.cpp:157] Top shape: 1 2400 (2400)
I0111 09:29:57.468691  8418 net.cpp:165] Memory required for data: 36158944
I0111 09:29:57.468700  8418 layer_factory.hpp:77] Creating layer score_s
I0111 09:29:57.468709  8418 net.cpp:106] Creating Layer score_s
I0111 09:29:57.468713  8418 net.cpp:454] score_s <- score
I0111 09:29:57.468724  8418 net.cpp:411] score_s -> score_s
I0111 09:29:57.469041  8418 net.cpp:150] Setting up score_s
I0111 09:29:57.469051  8418 net.cpp:157] Top shape: 1 2400 (2400)
I0111 09:29:57.469054  8418 net.cpp:165] Memory required for data: 36168544
I0111 09:29:57.469058  8418 layer_factory.hpp:77] Creating layer score2
I0111 09:29:57.469065  8418 net.cpp:106] Creating Layer score2
I0111 09:29:57.469069  8418 net.cpp:454] score2 <- score_s
I0111 09:29:57.469074  8418 net.cpp:411] score2 -> score2
I0111 09:29:57.469095  8418 net.cpp:150] Setting up score2
I0111 09:29:57.469101  8418 net.cpp:157] Top shape: 1 2 1 1200 (2400)
I0111 09:29:57.469105  8418 net.cpp:165] Memory required for data: 36178144
I0111 09:29:57.469107  8418 layer_factory.hpp:77] Creating layer score2_score2_0_split
I0111 09:29:57.469113  8418 net.cpp:106] Creating Layer score2_score2_0_split
I0111 09:29:57.469116  8418 net.cpp:454] score2_score2_0_split <- score2
I0111 09:29:57.469120  8418 net.cpp:411] score2_score2_0_split -> score2_score2_0_split_0
I0111 09:29:57.469128  8418 net.cpp:411] score2_score2_0_split -> score2_score2_0_split_1
I0111 09:29:57.469157  8418 net.cpp:150] Setting up score2_score2_0_split
I0111 09:29:57.469162  8418 net.cpp:157] Top shape: 1 2 1 1200 (2400)
I0111 09:29:57.469166  8418 net.cpp:157] Top shape: 1 2 1 1200 (2400)
I0111 09:29:57.469169  8418 net.cpp:165] Memory required for data: 36197344
I0111 09:29:57.469172  8418 layer_factory.hpp:77] Creating layer loss
I0111 09:29:57.469178  8418 net.cpp:106] Creating Layer loss
I0111 09:29:57.469182  8418 net.cpp:454] loss <- score2_score2_0_split_0
I0111 09:29:57.469187  8418 net.cpp:454] loss <- label2_label2_0_split_0
I0111 09:29:57.469190  8418 net.cpp:411] loss -> loss
…
