…
average_loss: 200
stepvalue: 10000
I0103 16:47:17.383391 28213 solver.cpp:86] Creating training net from train_net file: fcn2_train.prototxt
I0103 16:47:17.383716 28213 net.cpp:50] Initializing net from parameters: 
name: "FCN"
force_backward: true
state {
  phase: TRAIN
}
layer {
  name: "data"
  type: "Data"
  top: "data"
  data_param {
    source: "train2_images_lmdb/"
    batch_size: 1
    backend: LMDB
  }
}
layer {
  name: "label"
  type: "Data"
  top: "label"
  data_param {
    source: "train2_labels_lmdb/"
    batch_size: 1
    backend: LMDB
  }
}
layer {
  name: "label2"
  type: "Reshape"
  bottom: "label"
  top: "label2"
  reshape_param {
    shape {
      dim: 1
      dim: 1
      dim: 1
      dim: 1200
    }
  }
}
layer {
  name: "conv1"
  type: "Convolution"
  bottom: "data"
  top: "conv1"
  param {
    lr_mult: 1
    decay_mult: 1
  }
  param {
    lr_mult: 2
    decay_mult: 0
  }
  convolution_param {
    num_output: 40
    pad: 50
    kernel_size: 5
    group: 1
    stride: 1
    weight_filler {
      type: "gaussian"
      mean: 0
      std: 0.01
    }
    bias_filler {
      type: "constant"
      value: 0.1
    }
  }
}
layer {
  name: "relu1"
  type: "ReLU"
  bottom: "conv1"
  top: "conv1"
}
layer {
  name: "pool1"
  type: "Pooling"
  bottom: "conv1"
  top: "pool1"
  pooling_param {
    pool: MAX
    kernel_size: 2
    stride: 2
  }
}
layer {
  name: "conv2"
  type: "Convolution"
  bottom: "pool1"
  top: "conv2"
  param {
    lr_mult: 1
    decay_mult: 1
  }
  param {
    lr_mult: 2
    decay_mult: 0
  }
  convolution_param {
    num_output: 40
    pad: 0
    kernel_size: 3
    group: 1
    stride: 1
    weight_filler {
      type: "gaussian"
      mean: 0
      std: 0.01
    }
    bias_filler {
      type: "constant"
      value: 0.1
    }
  }
}
layer {
  name: "relu2"
  type: "ReLU"
  bottom: "conv2"
  top: "conv2"
}
layer {
  name: "pool2"
  type: "Pooling"
  bottom: "conv2"
  top: "pool2"
  pooling_param {
    pool: MAX
    kernel_size: 2
    stride: 2
  }
}
layer {
  name: "flatten"
  type: "Flatten"
  bottom: "pool2"
  top: "flatten"
}
layer {
  name: "drop"
  type: "Dropout"
  bottom: "flatten"
  top: "flatten"
  dropout_param {
    dropout_ratio: 0.1
  }
}
layer {
  name: "score"
  type: "InnerProduct"
  bottom: "flatten"
  top: "score"
  inner_product_param {
    num_output: 2400
  }
}
layer {
  name: "score2"
  type: "Reshape"
  bottom: "score"
  top: "score2"
  reshape_param {
    shape {
      dim: 1
      dim: 2
      dim: 1
      dim: 1200
    }
  }
}
layer {
  name: "loss"
  type: "SoftmaxWithLoss"
  bottom: "score2"
  bottom: "label2"
  top: "loss"
  loss_param {
    normalize: true
  }
}
I0103 16:47:17.383774 28213 layer_factory.hpp:76] Creating layer data
I0103 16:47:17.383852 28213 net.cpp:111] Creating Layer data
I0103 16:47:17.383862 28213 net.cpp:434] data -> data
I0103 16:47:17.384933 28225 db_lmdb.cpp:22] Opened lmdb train2_images_lmdb/
I0103 16:47:17.387806 28213 data_layer.cpp:44] output data size: 1,30,64,64
I0103 16:47:17.392585 28213 net.cpp:156] Setting up data
I0103 16:47:17.392624 28213 net.cpp:164] Top shape: 1 30 64 64 (122880)
I0103 16:47:17.392632 28213 layer_factory.hpp:76] Creating layer label
I0103 16:47:17.392678 28213 net.cpp:111] Creating Layer label
I0103 16:47:17.392701 28213 net.cpp:434] label -> label
I0103 16:47:17.394333 28227 db_lmdb.cpp:22] Opened lmdb train2_labels_lmdb/
I0103 16:47:17.395898 28213 data_layer.cpp:44] output data size: 1,1200,1,1
I0103 16:47:17.396354 28213 net.cpp:156] Setting up label
I0103 16:47:17.396368 28213 net.cpp:164] Top shape: 1 1200 1 1 (1200)
I0103 16:47:17.396373 28213 layer_factory.hpp:76] Creating layer label2
I0103 16:47:17.396390 28213 net.cpp:111] Creating Layer label2
I0103 16:47:17.396402 28213 net.cpp:478] label2 <- label
I0103 16:47:17.396414 28213 net.cpp:434] label2 -> label2
I0103 16:47:17.396430 28213 net.cpp:156] Setting up label2
I0103 16:47:17.396435 28213 net.cpp:164] Top shape: 1 1 1 1200 (1200)
I0103 16:47:17.396438 28213 layer_factory.hpp:76] Creating layer conv1
I0103 16:47:17.396448 28213 net.cpp:111] Creating Layer conv1
I0103 16:47:17.396451 28213 net.cpp:478] conv1 <- data
I0103 16:47:17.396456 28213 net.cpp:434] conv1 -> conv1
I0103 16:47:17.487903 28213 net.cpp:156] Setting up conv1
I0103 16:47:17.487941 28213 net.cpp:164] Top shape: 1 40 160 160 (1024000)
I0103 16:47:17.487960 28213 layer_factory.hpp:76] Creating layer relu1
I0103 16:47:17.487974 28213 net.cpp:111] Creating Layer relu1
I0103 16:47:17.487982 28213 net.cpp:478] relu1 <- conv1
I0103 16:47:17.487990 28213 net.cpp:420] relu1 -> conv1 (in-place)
I0103 16:47:17.488097 28213 net.cpp:156] Setting up relu1
I0103 16:47:17.488106 28213 net.cpp:164] Top shape: 1 40 160 160 (1024000)
I0103 16:47:17.488111 28213 layer_factory.hpp:76] Creating layer pool1
I0103 16:47:17.488119 28213 net.cpp:111] Creating Layer pool1
I0103 16:47:17.488122 28213 net.cpp:478] pool1 <- conv1
I0103 16:47:17.488127 28213 net.cpp:434] pool1 -> pool1
I0103 16:47:17.488313 28213 net.cpp:156] Setting up pool1
I0103 16:47:17.488324 28213 net.cpp:164] Top shape: 1 40 80 80 (256000)
I0103 16:47:17.488328 28213 layer_factory.hpp:76] Creating layer conv2
I0103 16:47:17.488337 28213 net.cpp:111] Creating Layer conv2
I0103 16:47:17.488339 28213 net.cpp:478] conv2 <- pool1
I0103 16:47:17.488344 28213 net.cpp:434] conv2 -> conv2
I0103 16:47:17.489387 28213 net.cpp:156] Setting up conv2
I0103 16:47:17.489401 28213 net.cpp:164] Top shape: 1 40 78 78 (243360)
I0103 16:47:17.489409 28213 layer_factory.hpp:76] Creating layer relu2
I0103 16:47:17.489415 28213 net.cpp:111] Creating Layer relu2
I0103 16:47:17.489419 28213 net.cpp:478] relu2 <- conv2
I0103 16:47:17.489424 28213 net.cpp:420] relu2 -> conv2 (in-place)
I0103 16:47:17.489528 28213 net.cpp:156] Setting up relu2
I0103 16:47:17.489537 28213 net.cpp:164] Top shape: 1 40 78 78 (243360)
I0103 16:47:17.489540 28213 layer_factory.hpp:76] Creating layer pool2
I0103 16:47:17.489547 28213 net.cpp:111] Creating Layer pool2
I0103 16:47:17.489552 28213 net.cpp:478] pool2 <- conv2
I0103 16:47:17.489557 28213 net.cpp:434] pool2 -> pool2
I0103 16:47:17.489737 28213 net.cpp:156] Setting up pool2
I0103 16:47:17.489747 28213 net.cpp:164] Top shape: 1 40 39 39 (60840)
I0103 16:47:17.489750 28213 layer_factory.hpp:76] Creating layer flatten
I0103 16:47:17.489758 28213 net.cpp:111] Creating Layer flatten
I0103 16:47:17.489763 28213 net.cpp:478] flatten <- pool2
I0103 16:47:17.489768 28213 net.cpp:434] flatten -> flatten
I0103 16:47:17.489774 28213 net.cpp:156] Setting up flatten
I0103 16:47:17.489779 28213 net.cpp:164] Top shape: 1 60840 (60840)
I0103 16:47:17.489783 28213 layer_factory.hpp:76] Creating layer drop
I0103 16:47:17.489789 28213 net.cpp:111] Creating Layer drop
I0103 16:47:17.489792 28213 net.cpp:478] drop <- flatten
I0103 16:47:17.489796 28213 net.cpp:420] drop -> flatten (in-place)
I0103 16:47:17.489804 28213 net.cpp:156] Setting up drop
I0103 16:47:17.489809 28213 net.cpp:164] Top shape: 1 60840 (60840)
I0103 16:47:17.489811 28213 layer_factory.hpp:76] Creating layer score
I0103 16:47:17.489816 28213 net.cpp:111] Creating Layer score
I0103 16:47:17.489820 28213 net.cpp:478] score <- flatten
I0103 16:47:17.489823 28213 net.cpp:434] score -> score
I0103 16:47:17.699769 28213 net.cpp:156] Setting up score
I0103 16:47:17.699813 28213 net.cpp:164] Top shape: 1 2400 (2400)
I0103 16:47:17.699828 28213 layer_factory.hpp:76] Creating layer score2
I0103 16:47:17.699847 28213 net.cpp:111] Creating Layer score2
I0103 16:47:17.699856 28213 net.cpp:478] score2 <- score
I0103 16:47:17.699867 28213 net.cpp:434] score2 -> score2
I0103 16:47:17.699880 28213 net.cpp:156] Setting up score2
I0103 16:47:17.699885 28213 net.cpp:164] Top shape: 1 2 1 1200 (2400)
I0103 16:47:17.699898 28213 layer_factory.hpp:76] Creating layer loss
I0103 16:47:17.699913 28213 net.cpp:111] Creating Layer loss
I0103 16:47:17.699916 28213 net.cpp:478] loss <- score2
I0103 16:47:17.699920 28213 net.cpp:478] loss <- label2
I0103 16:47:17.699928 28213 net.cpp:434] loss -> loss
I0103 16:47:17.699944 28213 layer_factory.hpp:76] Creating layer loss
I0103 16:47:17.700196 28213 net.cpp:156] Setting up loss
…
I0103 16:47:17.700285 28213 net.cpp:299] Memory required for data: 12413284
I0103 16:47:17.700552 28213 solver.cpp:186] Creating test net (#0) specified by test_net file: fcn2_test.prototxt
I0103 16:47:17.700649 28213 net.cpp:50] Initializing net from parameters: 
name: "FCN"
force_backward: true
state {
  phase: TEST
}
layer {
  name: "data"
  type: "Data"
  top: "data"
  data_param {
    source: "test2_images_lmdb/"
    batch_size: 1
    backend: LMDB
  }
}
layer {
  name: "label"
  type: "Data"
  top: "label"
  data_param {
    source: "test2_labels_lmdb/"
    batch_size: 1
    backend: LMDB
  }
}
layer {
  name: "label2"
  type: "Reshape"
  bottom: "label"
  top: "label2"
  reshape_param {
    shape {
      dim: 1
      dim: 1
      dim: 1
      dim: 1200
    }
  }
}
layer {
  name: "conv1"
  type: "Convolution"
  bottom: "data"
  top: "conv1"
  param {
    lr_mult: 1
    decay_mult: 1
  }
  param {
    lr_mult: 2
    decay_mult: 0
  }
  convolution_param {
    num_output: 40
    pad: 50
    kernel_size: 5
    group: 1
    stride: 1
    weight_filler {
      type: "gaussian"
      mean: 0
      std: 0.01
    }
    bias_filler {
      type: "constant"
      value: 0.1
    }
  }
}
layer {
  name: "relu1"
  type: "ReLU"
  bottom: "conv1"
  top: "conv1"
}
layer {
  name: "pool1"
  type: "Pooling"
  bottom: "conv1"
  top: "pool1"
  pooling_param {
    pool: MAX
    kernel_size: 2
    stride: 2
  }
}
layer {
  name: "conv2"
  type: "Convolution"
  bottom: "pool1"
  top: "conv2"
  param {
    lr_mult: 1
    decay_mult: 1
  }
  param {
    lr_mult: 2
    decay_mult: 0
  }
  convolution_param {
    num_output: 40
    pad: 0
    kernel_size: 3
    group: 1
    stride: 1
    weight_filler {
      type: "gaussian"
      mean: 0
      std: 0.01
    }
    bias_filler {
      type: "constant"
      value: 0.1
    }
  }
}
layer {
  name: "relu2"
  type: "ReLU"
  bottom: "conv2"
  top: "conv2"
}
layer {
  name: "pool2"
  type: "Pooling"
  bottom: "conv2"
  top: "pool2"
  pooling_param {
    pool: MAX
    kernel_size: 2
    stride: 2
  }
}
layer {
  name: "flatten"
  type: "Flatten"
  bottom: "pool2"
  top: "flatten"
}
layer {
  name: "drop"
  type: "Dropout"
  bottom: "flatten"
  top: "flatten"
  dropout_param {
    dropout_ratio: 0.1
  }
}
layer {
  name: "score"
  type: "InnerProduct"
  bottom: "flatten"
  top: "score"
  inner_product_param {
    num_output: 2400
  }
}
layer {
  name: "score2"
  type: "Reshape"
  bottom: "score"
  top: "score2"
  reshape_param {
    shape {
      dim: 1
      dim: 2
      dim: 1
      dim: 1200
    }
  }
}
layer {
  name: "loss"
  type: "SoftmaxWithLoss"
  bottom: "score2"
  bottom: "label2"
  top: "loss"
  loss_param {
    normalize: true
  }
}
layer {
  name: "accuracy"
  type: "Accuracy"
  bottom: "score2"
  bottom: "label2"
  top: "accuracy"
}
I0103 16:47:17.700713 28213 layer_factory.hpp:76] Creating layer data
I0103 16:47:17.700765 28213 net.cpp:111] Creating Layer data
I0103 16:47:17.700773 28213 net.cpp:434] data -> data
I0103 16:47:17.701758 28229 db_lmdb.cpp:22] Opened lmdb test2_images_lmdb/
I0103 16:47:17.703744 28213 data_layer.cpp:44] output data size: 1,30,64,64
I0103 16:47:17.704509 28213 net.cpp:156] Setting up data
I0103 16:47:17.704527 28213 net.cpp:164] Top shape: 1 30 64 64 (122880)
I0103 16:47:17.704532 28213 layer_factory.hpp:76] Creating layer label
I0103 16:47:17.704706 28213 net.cpp:111] Creating Layer label
I0103 16:47:17.704720 28213 net.cpp:434] label -> label
I0103 16:47:17.707061 28231 db_lmdb.cpp:22] Opened lmdb test2_labels_lmdb/
I0103 16:47:17.707656 28213 data_layer.cpp:44] output data size: 1,1200,1,1
I0103 16:47:17.707770 28213 net.cpp:156] Setting up label
I0103 16:47:17.707782 28213 net.cpp:164] Top shape: 1 1200 1 1 (1200)
I0103 16:47:17.707787 28213 layer_factory.hpp:76] Creating layer label2
I0103 16:47:17.707795 28213 net.cpp:111] Creating Layer label2
I0103 16:47:17.707800 28213 net.cpp:478] label2 <- label
I0103 16:47:17.707805 28213 net.cpp:434] label2 -> label2
I0103 16:47:17.707813 28213 net.cpp:156] Setting up label2
I0103 16:47:17.707818 28213 net.cpp:164] Top shape: 1 1 1 1200 (1200)
I0103 16:47:17.707821 28213 layer_factory.hpp:76] Creating layer label2_label2_0_split
I0103 16:47:17.707826 28213 net.cpp:111] Creating Layer label2_label2_0_split
I0103 16:47:17.707830 28213 net.cpp:478] label2_label2_0_split <- label2
I0103 16:47:17.707835 28213 net.cpp:434] label2_label2_0_split -> label2_label2_0_split_0
I0103 16:47:17.707840 28213 net.cpp:434] label2_label2_0_split -> label2_label2_0_split_1
I0103 16:47:17.707846 28213 net.cpp:156] Setting up label2_label2_0_split
I0103 16:47:17.707850 28213 net.cpp:164] Top shape: 1 1 1 1200 (1200)
I0103 16:47:17.707854 28213 net.cpp:164] Top shape: 1 1 1 1200 (1200)
I0103 16:47:17.707857 28213 layer_factory.hpp:76] Creating layer conv1
I0103 16:47:17.707865 28213 net.cpp:111] Creating Layer conv1
I0103 16:47:17.707870 28213 net.cpp:478] conv1 <- data
I0103 16:47:17.707873 28213 net.cpp:434] conv1 -> conv1
I0103 16:47:17.709059 28213 net.cpp:156] Setting up conv1
I0103 16:47:17.709069 28213 net.cpp:164] Top shape: 1 40 160 160 (1024000)
I0103 16:47:17.709079 28213 layer_factory.hpp:76] Creating layer relu1
I0103 16:47:17.709084 28213 net.cpp:111] Creating Layer relu1
I0103 16:47:17.709087 28213 net.cpp:478] relu1 <- conv1
I0103 16:47:17.709092 28213 net.cpp:420] relu1 -> conv1 (in-place)
I0103 16:47:17.709301 28213 net.cpp:156] Setting up relu1
I0103 16:47:17.709311 28213 net.cpp:164] Top shape: 1 40 160 160 (1024000)
I0103 16:47:17.709316 28213 layer_factory.hpp:76] Creating layer pool1
I0103 16:47:17.709321 28213 net.cpp:111] Creating Layer pool1
I0103 16:47:17.709324 28213 net.cpp:478] pool1 <- conv1
I0103 16:47:17.709331 28213 net.cpp:434] pool1 -> pool1
I0103 16:47:17.709437 28213 net.cpp:156] Setting up pool1
I0103 16:47:17.709445 28213 net.cpp:164] Top shape: 1 40 80 80 (256000)
I0103 16:47:17.709449 28213 layer_factory.hpp:76] Creating layer conv2
I0103 16:47:17.709457 28213 net.cpp:111] Creating Layer conv2
I0103 16:47:17.709461 28213 net.cpp:478] conv2 <- pool1
I0103 16:47:17.709472 28213 net.cpp:434] conv2 -> conv2
I0103 16:47:17.710284 28213 net.cpp:156] Setting up conv2
I0103 16:47:17.710295 28213 net.cpp:164] Top shape: 1 40 78 78 (243360)
I0103 16:47:17.710304 28213 layer_factory.hpp:76] Creating layer relu2
I0103 16:47:17.710309 28213 net.cpp:111] Creating Layer relu2
I0103 16:47:17.710317 28213 net.cpp:478] relu2 <- conv2
I0103 16:47:17.710330 28213 net.cpp:420] relu2 -> conv2 (in-place)
I0103 16:47:17.710515 28213 net.cpp:156] Setting up relu2
I0103 16:47:17.710525 28213 net.cpp:164] Top shape: 1 40 78 78 (243360)
I0103 16:47:17.710530 28213 layer_factory.hpp:76] Creating layer pool2
I0103 16:47:17.710536 28213 net.cpp:111] Creating Layer pool2
I0103 16:47:17.710539 28213 net.cpp:478] pool2 <- conv2
I0103 16:47:17.710546 28213 net.cpp:434] pool2 -> pool2
I0103 16:47:17.710652 28213 net.cpp:156] Setting up pool2
I0103 16:47:17.710660 28213 net.cpp:164] Top shape: 1 40 39 39 (60840)
I0103 16:47:17.710664 28213 layer_factory.hpp:76] Creating layer flatten
I0103 16:47:17.710669 28213 net.cpp:111] Creating Layer flatten
I0103 16:47:17.710672 28213 net.cpp:478] flatten <- pool2
I0103 16:47:17.710676 28213 net.cpp:434] flatten -> flatten
I0103 16:47:17.710682 28213 net.cpp:156] Setting up flatten
I0103 16:47:17.710686 28213 net.cpp:164] Top shape: 1 60840 (60840)
I0103 16:47:17.710690 28213 layer_factory.hpp:76] Creating layer drop
I0103 16:47:17.710695 28213 net.cpp:111] Creating Layer drop
I0103 16:47:17.710700 28213 net.cpp:478] drop <- flatten
I0103 16:47:17.710703 28213 net.cpp:420] drop -> flatten (in-place)
I0103 16:47:17.710708 28213 net.cpp:156] Setting up drop
I0103 16:47:17.710714 28213 net.cpp:164] Top shape: 1 60840 (60840)
I0103 16:47:17.710717 28213 layer_factory.hpp:76] Creating layer score
I0103 16:47:17.710723 28213 net.cpp:111] Creating Layer score
I0103 16:47:17.710726 28213 net.cpp:478] score <- flatten
I0103 16:47:17.710731 28213 net.cpp:434] score -> score
I0103 16:47:17.922097 28213 net.cpp:156] Setting up score
I0103 16:47:17.922135 28213 net.cpp:164] Top shape: 1 2400 (2400)
I0103 16:47:17.922148 28213 layer_factory.hpp:76] Creating layer score2
I0103 16:47:17.922158 28213 net.cpp:111] Creating Layer score2
I0103 16:47:17.922163 28213 net.cpp:478] score2 <- score
I0103 16:47:17.922169 28213 net.cpp:434] score2 -> score2
I0103 16:47:17.922180 28213 net.cpp:156] Setting up score2
I0103 16:47:17.922186 28213 net.cpp:164] Top shape: 1 2 1 1200 (2400)
I0103 16:47:17.922189 28213 layer_factory.hpp:76] Creating layer score2_score2_0_split
I0103 16:47:17.922196 28213 net.cpp:111] Creating Layer score2_score2_0_split
I0103 16:47:17.922200 28213 net.cpp:478] score2_score2_0_split <- score2
I0103 16:47:17.922204 28213 net.cpp:434] score2_score2_0_split -> score2_score2_0_split_0
I0103 16:47:17.922209 28213 net.cpp:434] score2_score2_0_split -> score2_score2_0_split_1
I0103 16:47:17.922215 28213 net.cpp:156] Setting up score2_score2_0_split
I0103 16:47:17.922220 28213 net.cpp:164] Top shape: 1 2 1 1200 (2400)
I0103 16:47:17.922224 28213 net.cpp:164] Top shape: 1 2 1 1200 (2400)
I0103 16:47:17.922227 28213 layer_factory.hpp:76] Creating layer loss
I0103 16:47:17.922232 28213 net.cpp:111] Creating Layer loss
I0103 16:47:17.922235 28213 net.cpp:478] loss <- score2_score2_0_split_0
I0103 16:47:17.922240 28213 net.cpp:478] loss <- label2_label2_0_split_0
I0103 16:47:17.922245 28213 net.cpp:434] loss -> loss
I0103 16:47:17.922251 28213 layer_factory.hpp:76] Creating layer loss
…
