…
average_loss: 200
stepvalue: 10000
I0105 20:51:08.372493  9290 solver.cpp:86] Creating training net from train_net file: fcn2_train.prototxt
I0105 20:51:08.372827  9290 net.cpp:50] Initializing net from parameters: 
name: "FCN"
force_backward: true
state {
  phase: TRAIN
}
layer {
  name: "data"
  type: "Data"
  top: "data"
  data_param {
    source: "train2_images_lmdb/"
    batch_size: 10
    backend: LMDB
  }
}
layer {
  name: "label"
  type: "Data"
  top: "label"
  data_param {
    source: "train2_labels_lmdb/"
    batch_size: 10
    backend: LMDB
  }
}
layer {
  name: "label2"
  type: "Reshape"
  bottom: "label"
  top: "label2"
  reshape_param {
    shape {
      dim: 10
      dim: 1
      dim: 1
      dim: 1200
    }
  }
}
layer {
  name: "conv1"
  type: "Convolution"
  bottom: "data"
  top: "conv1"
  param {
    lr_mult: 1
    decay_mult: 1
  }
  param {
    lr_mult: 2
    decay_mult: 0
  }
  convolution_param {
    num_output: 40
    pad: 50
    kernel_size: 5
    group: 1
    stride: 1
    weight_filler {
      type: "gaussian"
      mean: 0
      std: 0.01
    }
    bias_filler {
      type: "constant"
      value: 0.1
    }
  }
}
layer {
  name: "relu1"
  type: "ReLU"
  bottom: "conv1"
  top: "conv1"
}
layer {
  name: "pool1"
  type: "Pooling"
  bottom: "conv1"
  top: "pool1"
  pooling_param {
    pool: MAX
    kernel_size: 2
    stride: 2
  }
}
layer {
  name: "conv2"
  type: "Convolution"
  bottom: "pool1"
  top: "conv2"
  param {
    lr_mult: 1
    decay_mult: 1
  }
  param {
    lr_mult: 2
    decay_mult: 0
  }
  convolution_param {
    num_output: 40
    pad: 0
    kernel_size: 3
    group: 1
    stride: 1
    weight_filler {
      type: "gaussian"
      mean: 0
      std: 0.01
    }
    bias_filler {
      type: "constant"
      value: 0.1
    }
  }
}
layer {
  name: "relu2"
  type: "ReLU"
  bottom: "conv2"
  top: "conv2"
}
layer {
  name: "pool2"
  type: "Pooling"
  bottom: "conv2"
  top: "pool2"
  pooling_param {
    pool: MAX
    kernel_size: 2
    stride: 2
  }
}
layer {
  name: "flatten"
  type: "Flatten"
  bottom: "pool2"
  top: "flatten"
}
layer {
  name: "drop"
  type: "Dropout"
  bottom: "flatten"
  top: "flatten"
  dropout_param {
    dropout_ratio: 0.1
  }
}
layer {
  name: "score"
  type: "InnerProduct"
  bottom: "flatten"
  top: "score"
  inner_product_param {
    num_output: 2400
  }
}
layer {
  name: "score2"
  type: "Reshape"
  bottom: "score"
  top: "score2"
  reshape_param {
    shape {
      dim: 10
      dim: 2
      dim: 1
      dim: 1200
    }
  }
}
layer {
  name: "loss"
  type: "SoftmaxWithLoss"
  bottom: "score2"
  bottom: "label2"
  top: "loss"
  loss_param {
    normalize: true
  }
}
I0105 20:51:08.372887  9290 layer_factory.hpp:76] Creating layer data
I0105 20:51:08.372969  9290 net.cpp:111] Creating Layer data
I0105 20:51:08.372980  9290 net.cpp:434] data -> data
I0105 20:51:08.373704  9302 db_lmdb.cpp:22] Opened lmdb train2_images_lmdb/
I0105 20:51:08.374426  9290 data_layer.cpp:44] output data size: 10,29,64,64
I0105 20:51:08.383697  9290 net.cpp:156] Setting up data
I0105 20:51:08.383738  9290 net.cpp:164] Top shape: 10 29 64 64 (1187840)
I0105 20:51:08.383749  9290 layer_factory.hpp:76] Creating layer label
I0105 20:51:08.383787  9290 net.cpp:111] Creating Layer label
I0105 20:51:08.383805  9290 net.cpp:434] label -> label
I0105 20:51:08.384603  9304 db_lmdb.cpp:22] Opened lmdb train2_labels_lmdb/
I0105 20:51:08.384812  9290 data_layer.cpp:44] output data size: 10,1200,1,1
I0105 20:51:08.385485  9290 net.cpp:156] Setting up label
I0105 20:51:08.385510  9290 net.cpp:164] Top shape: 10 1200 1 1 (12000)
I0105 20:51:08.385519  9290 layer_factory.hpp:76] Creating layer label2
I0105 20:51:08.385552  9290 net.cpp:111] Creating Layer label2
I0105 20:51:08.385571  9290 net.cpp:478] label2 <- label
I0105 20:51:08.385587  9290 net.cpp:434] label2 -> label2
I0105 20:51:08.385607  9290 net.cpp:156] Setting up label2
I0105 20:51:08.385617  9290 net.cpp:164] Top shape: 10 1 1 1200 (12000)
I0105 20:51:08.385622  9290 layer_factory.hpp:76] Creating layer conv1
I0105 20:51:08.385637  9290 net.cpp:111] Creating Layer conv1
I0105 20:51:08.385643  9290 net.cpp:478] conv1 <- data
I0105 20:51:08.385651  9290 net.cpp:434] conv1 -> conv1
I0105 20:51:08.495707  9290 net.cpp:156] Setting up conv1
I0105 20:51:08.495743  9290 net.cpp:164] Top shape: 10 40 160 160 (10240000)
I0105 20:51:08.495764  9290 layer_factory.hpp:76] Creating layer relu1
I0105 20:51:08.495775  9290 net.cpp:111] Creating Layer relu1
I0105 20:51:08.495780  9290 net.cpp:478] relu1 <- conv1
I0105 20:51:08.495786  9290 net.cpp:420] relu1 -> conv1 (in-place)
I0105 20:51:08.495887  9290 net.cpp:156] Setting up relu1
I0105 20:51:08.495895  9290 net.cpp:164] Top shape: 10 40 160 160 (10240000)
I0105 20:51:08.495900  9290 layer_factory.hpp:76] Creating layer pool1
I0105 20:51:08.495908  9290 net.cpp:111] Creating Layer pool1
I0105 20:51:08.495913  9290 net.cpp:478] pool1 <- conv1
I0105 20:51:08.495918  9290 net.cpp:434] pool1 -> pool1
I0105 20:51:08.496098  9290 net.cpp:156] Setting up pool1
I0105 20:51:08.496109  9290 net.cpp:164] Top shape: 10 40 80 80 (2560000)
I0105 20:51:08.496114  9290 layer_factory.hpp:76] Creating layer conv2
I0105 20:51:08.496122  9290 net.cpp:111] Creating Layer conv2
I0105 20:51:08.496126  9290 net.cpp:478] conv2 <- pool1
I0105 20:51:08.496134  9290 net.cpp:434] conv2 -> conv2
I0105 20:51:08.496915  9290 net.cpp:156] Setting up conv2
I0105 20:51:08.496927  9290 net.cpp:164] Top shape: 10 40 78 78 (2433600)
I0105 20:51:08.496935  9290 layer_factory.hpp:76] Creating layer relu2
I0105 20:51:08.496942  9290 net.cpp:111] Creating Layer relu2
I0105 20:51:08.496945  9290 net.cpp:478] relu2 <- conv2
I0105 20:51:08.496950  9290 net.cpp:420] relu2 -> conv2 (in-place)
I0105 20:51:08.497043  9290 net.cpp:156] Setting up relu2
I0105 20:51:08.497051  9290 net.cpp:164] Top shape: 10 40 78 78 (2433600)
I0105 20:51:08.497056  9290 layer_factory.hpp:76] Creating layer pool2
I0105 20:51:08.497062  9290 net.cpp:111] Creating Layer pool2
I0105 20:51:08.497067  9290 net.cpp:478] pool2 <- conv2
I0105 20:51:08.497072  9290 net.cpp:434] pool2 -> pool2
I0105 20:51:08.497238  9290 net.cpp:156] Setting up pool2
I0105 20:51:08.497248  9290 net.cpp:164] Top shape: 10 40 39 39 (608400)
I0105 20:51:08.497253  9290 layer_factory.hpp:76] Creating layer flatten
I0105 20:51:08.497258  9290 net.cpp:111] Creating Layer flatten
I0105 20:51:08.497263  9290 net.cpp:478] flatten <- pool2
I0105 20:51:08.497268  9290 net.cpp:434] flatten -> flatten
I0105 20:51:08.497275  9290 net.cpp:156] Setting up flatten
I0105 20:51:08.497280  9290 net.cpp:164] Top shape: 10 60840 (608400)
I0105 20:51:08.497284  9290 layer_factory.hpp:76] Creating layer drop
I0105 20:51:08.497290  9290 net.cpp:111] Creating Layer drop
I0105 20:51:08.497294  9290 net.cpp:478] drop <- flatten
I0105 20:51:08.497298  9290 net.cpp:420] drop -> flatten (in-place)
I0105 20:51:08.497308  9290 net.cpp:156] Setting up drop
I0105 20:51:08.497311  9290 net.cpp:164] Top shape: 10 60840 (608400)
I0105 20:51:08.497315  9290 layer_factory.hpp:76] Creating layer score
I0105 20:51:08.497320  9290 net.cpp:111] Creating Layer score
I0105 20:51:08.497324  9290 net.cpp:478] score <- flatten
I0105 20:51:08.497329  9290 net.cpp:434] score -> score
I0105 20:51:08.700975  9290 net.cpp:156] Setting up score
I0105 20:51:08.701020  9290 net.cpp:164] Top shape: 10 2400 (24000)
I0105 20:51:08.701032  9290 layer_factory.hpp:76] Creating layer score2
I0105 20:51:08.701045  9290 net.cpp:111] Creating Layer score2
I0105 20:51:08.701050  9290 net.cpp:478] score2 <- score
I0105 20:51:08.701056  9290 net.cpp:434] score2 -> score2
I0105 20:51:08.701068  9290 net.cpp:156] Setting up score2
I0105 20:51:08.701073  9290 net.cpp:164] Top shape: 10 2 1 1200 (24000)
I0105 20:51:08.701089  9290 layer_factory.hpp:76] Creating layer loss
I0105 20:51:08.701102  9290 net.cpp:111] Creating Layer loss
I0105 20:51:08.701107  9290 net.cpp:478] loss <- score2
I0105 20:51:08.701112  9290 net.cpp:478] loss <- label2
I0105 20:51:08.701118  9290 net.cpp:434] loss -> loss
I0105 20:51:08.701128  9290 layer_factory.hpp:76] Creating layer loss
I0105 20:51:08.701323  9290 net.cpp:156] Setting up loss
…
I0105 20:51:08.701424  9290 net.cpp:299] Memory required for data: 123968964
I0105 20:51:08.701683  9290 solver.cpp:186] Creating test net (#0) specified by test_net file: fcn2_test.prototxt
I0105 20:51:08.701774  9290 net.cpp:50] Initializing net from parameters: 
name: "FCN"
force_backward: true
state {
  phase: TEST
}
layer {
  name: "data"
  type: "Data"
  top: "data"
  data_param {
    source: "test2_images_lmdb/"
    batch_size: 10
    backend: LMDB
  }
}
layer {
  name: "label"
  type: "Data"
  top: "label"
  data_param {
    source: "test2_labels_lmdb/"
    batch_size: 10
    backend: LMDB
  }
}
layer {
  name: "label2"
  type: "Reshape"
  bottom: "label"
  top: "label2"
  reshape_param {
    shape {
      dim: 10
      dim: 1
      dim: 1
      dim: 1200
    }
  }
}
layer {
  name: "conv1"
  type: "Convolution"
  bottom: "data"
  top: "conv1"
  param {
    lr_mult: 1
    decay_mult: 1
  }
  param {
    lr_mult: 2
    decay_mult: 0
  }
  convolution_param {
    num_output: 40
    pad: 50
    kernel_size: 5
    group: 1
    stride: 1
    weight_filler {
      type: "gaussian"
      mean: 0
      std: 0.01
    }
    bias_filler {
      type: "constant"
      value: 0.1
    }
  }
}
layer {
  name: "relu1"
  type: "ReLU"
  bottom: "conv1"
  top: "conv1"
}
layer {
  name: "pool1"
  type: "Pooling"
  bottom: "conv1"
  top: "pool1"
  pooling_param {
    pool: MAX
    kernel_size: 2
    stride: 2
  }
}
layer {
  name: "conv2"
  type: "Convolution"
  bottom: "pool1"
  top: "conv2"
  param {
    lr_mult: 1
    decay_mult: 1
  }
  param {
    lr_mult: 2
    decay_mult: 0
  }
  convolution_param {
    num_output: 40
    pad: 0
    kernel_size: 3
    group: 1
    stride: 1
    weight_filler {
      type: "gaussian"
      mean: 0
      std: 0.01
    }
    bias_filler {
      type: "constant"
      value: 0.1
    }
  }
}
layer {
  name: "relu2"
  type: "ReLU"
  bottom: "conv2"
  top: "conv2"
}
layer {
  name: "pool2"
  type: "Pooling"
  bottom: "conv2"
  top: "pool2"
  pooling_param {
    pool: MAX
    kernel_size: 2
    stride: 2
  }
}
layer {
  name: "flatten"
  type: "Flatten"
  bottom: "pool2"
  top: "flatten"
}
layer {
  name: "drop"
  type: "Dropout"
  bottom: "flatten"
  top: "flatten"
  dropout_param {
    dropout_ratio: 0.1
  }
}
layer {
  name: "score"
  type: "InnerProduct"
  bottom: "flatten"
  top: "score"
  inner_product_param {
    num_output: 2400
  }
}
layer {
  name: "score2"
  type: "Reshape"
  bottom: "score"
  top: "score2"
  reshape_param {
    shape {
      dim: 10
      dim: 2
      dim: 1
      dim: 1200
    }
  }
}
layer {
  name: "loss"
  type: "SoftmaxWithLoss"
  bottom: "score2"
  bottom: "label2"
  top: "loss"
  loss_param {
    normalize: true
  }
}
layer {
  name: "accuracy"
  type: "Accuracy"
  bottom: "score2"
  bottom: "label2"
  top: "accuracy"
}
I0105 20:51:08.701834  9290 layer_factory.hpp:76] Creating layer data
I0105 20:51:08.709169  9290 net.cpp:111] Creating Layer data
I0105 20:51:08.709206  9290 net.cpp:434] data -> data
I0105 20:51:08.709825  9306 db_lmdb.cpp:22] Opened lmdb test2_images_lmdb/
I0105 20:51:08.710425  9290 data_layer.cpp:44] output data size: 10,29,64,64
I0105 20:51:08.716461  9290 net.cpp:156] Setting up data
I0105 20:51:08.716500  9290 net.cpp:164] Top shape: 10 29 64 64 (1187840)
I0105 20:51:08.716511  9290 layer_factory.hpp:76] Creating layer label
I0105 20:51:08.716572  9290 net.cpp:111] Creating Layer label
I0105 20:51:08.716583  9290 net.cpp:434] label -> label
I0105 20:51:08.717546  9308 db_lmdb.cpp:22] Opened lmdb test2_labels_lmdb/
I0105 20:51:08.717617  9290 data_layer.cpp:44] output data size: 10,1200,1,1
I0105 20:51:08.717988  9290 net.cpp:156] Setting up label
I0105 20:51:08.718003  9290 net.cpp:164] Top shape: 10 1200 1 1 (12000)
I0105 20:51:08.718008  9290 layer_factory.hpp:76] Creating layer label2
I0105 20:51:08.718020  9290 net.cpp:111] Creating Layer label2
I0105 20:51:08.718025  9290 net.cpp:478] label2 <- label
I0105 20:51:08.718034  9290 net.cpp:434] label2 -> label2
I0105 20:51:08.718046  9290 net.cpp:156] Setting up label2
I0105 20:51:08.718052  9290 net.cpp:164] Top shape: 10 1 1 1200 (12000)
I0105 20:51:08.718057  9290 layer_factory.hpp:76] Creating layer label2_label2_0_split
I0105 20:51:08.718065  9290 net.cpp:111] Creating Layer label2_label2_0_split
I0105 20:51:08.718070  9290 net.cpp:478] label2_label2_0_split <- label2
I0105 20:51:08.718076  9290 net.cpp:434] label2_label2_0_split -> label2_label2_0_split_0
I0105 20:51:08.718083  9290 net.cpp:434] label2_label2_0_split -> label2_label2_0_split_1
I0105 20:51:08.718091  9290 net.cpp:156] Setting up label2_label2_0_split
I0105 20:51:08.718096  9290 net.cpp:164] Top shape: 10 1 1 1200 (12000)
I0105 20:51:08.718101  9290 net.cpp:164] Top shape: 10 1 1 1200 (12000)
I0105 20:51:08.718106  9290 layer_factory.hpp:76] Creating layer conv1
I0105 20:51:08.718116  9290 net.cpp:111] Creating Layer conv1
I0105 20:51:08.718121  9290 net.cpp:478] conv1 <- data
I0105 20:51:08.718127  9290 net.cpp:434] conv1 -> conv1
I0105 20:51:08.719672  9290 net.cpp:156] Setting up conv1
I0105 20:51:08.719715  9290 net.cpp:164] Top shape: 10 40 160 160 (10240000)
I0105 20:51:08.719733  9290 layer_factory.hpp:76] Creating layer relu1
I0105 20:51:08.719748  9290 net.cpp:111] Creating Layer relu1
I0105 20:51:08.719756  9290 net.cpp:478] relu1 <- conv1
I0105 20:51:08.719768  9290 net.cpp:420] relu1 -> conv1 (in-place)
I0105 20:51:08.720155  9290 net.cpp:156] Setting up relu1
I0105 20:51:08.720170  9290 net.cpp:164] Top shape: 10 40 160 160 (10240000)
I0105 20:51:08.720176  9290 layer_factory.hpp:76] Creating layer pool1
I0105 20:51:08.720186  9290 net.cpp:111] Creating Layer pool1
I0105 20:51:08.720191  9290 net.cpp:478] pool1 <- conv1
I0105 20:51:08.720198  9290 net.cpp:434] pool1 -> pool1
I0105 20:51:08.720332  9290 net.cpp:156] Setting up pool1
I0105 20:51:08.720348  9290 net.cpp:164] Top shape: 10 40 80 80 (2560000)
I0105 20:51:08.720355  9290 layer_factory.hpp:76] Creating layer conv2
I0105 20:51:08.720369  9290 net.cpp:111] Creating Layer conv2
I0105 20:51:08.720374  9290 net.cpp:478] conv2 <- pool1
I0105 20:51:08.720383  9290 net.cpp:434] conv2 -> conv2
I0105 20:51:08.721441  9290 net.cpp:156] Setting up conv2
I0105 20:51:08.721472  9290 net.cpp:164] Top shape: 10 40 78 78 (2433600)
I0105 20:51:08.721487  9290 layer_factory.hpp:76] Creating layer relu2
I0105 20:51:08.721508  9290 net.cpp:111] Creating Layer relu2
I0105 20:51:08.721521  9290 net.cpp:478] relu2 <- conv2
I0105 20:51:08.721529  9290 net.cpp:420] relu2 -> conv2 (in-place)
I0105 20:51:08.721765  9290 net.cpp:156] Setting up relu2
I0105 20:51:08.721779  9290 net.cpp:164] Top shape: 10 40 78 78 (2433600)
I0105 20:51:08.721784  9290 layer_factory.hpp:76] Creating layer pool2
I0105 20:51:08.721793  9290 net.cpp:111] Creating Layer pool2
I0105 20:51:08.721797  9290 net.cpp:478] pool2 <- conv2
I0105 20:51:08.721804  9290 net.cpp:434] pool2 -> pool2
I0105 20:51:08.721925  9290 net.cpp:156] Setting up pool2
I0105 20:51:08.721936  9290 net.cpp:164] Top shape: 10 40 39 39 (608400)
I0105 20:51:08.721943  9290 layer_factory.hpp:76] Creating layer flatten
I0105 20:51:08.721951  9290 net.cpp:111] Creating Layer flatten
I0105 20:51:08.721956  9290 net.cpp:478] flatten <- pool2
I0105 20:51:08.721962  9290 net.cpp:434] flatten -> flatten
I0105 20:51:08.721971  9290 net.cpp:156] Setting up flatten
I0105 20:51:08.721976  9290 net.cpp:164] Top shape: 10 60840 (608400)
I0105 20:51:08.721982  9290 layer_factory.hpp:76] Creating layer drop
I0105 20:51:08.721988  9290 net.cpp:111] Creating Layer drop
I0105 20:51:08.721992  9290 net.cpp:478] drop <- flatten
I0105 20:51:08.721997  9290 net.cpp:420] drop -> flatten (in-place)
I0105 20:51:08.722004  9290 net.cpp:156] Setting up drop
I0105 20:51:08.722009  9290 net.cpp:164] Top shape: 10 60840 (608400)
I0105 20:51:08.722013  9290 layer_factory.hpp:76] Creating layer score
I0105 20:51:08.722020  9290 net.cpp:111] Creating Layer score
I0105 20:51:08.722024  9290 net.cpp:478] score <- flatten
I0105 20:51:08.722029  9290 net.cpp:434] score -> score
I0105 20:51:08.929111  9290 net.cpp:156] Setting up score
I0105 20:51:08.929160  9290 net.cpp:164] Top shape: 10 2400 (24000)
I0105 20:51:08.929179  9290 layer_factory.hpp:76] Creating layer score2
I0105 20:51:08.929193  9290 net.cpp:111] Creating Layer score2
I0105 20:51:08.929200  9290 net.cpp:478] score2 <- score
I0105 20:51:08.929208  9290 net.cpp:434] score2 -> score2
I0105 20:51:08.929221  9290 net.cpp:156] Setting up score2
I0105 20:51:08.929229  9290 net.cpp:164] Top shape: 10 2 1 1200 (24000)
I0105 20:51:08.929234  9290 layer_factory.hpp:76] Creating layer score2_score2_0_split
I0105 20:51:08.929240  9290 net.cpp:111] Creating Layer score2_score2_0_split
I0105 20:51:08.929244  9290 net.cpp:478] score2_score2_0_split <- score2
I0105 20:51:08.929250  9290 net.cpp:434] score2_score2_0_split -> score2_score2_0_split_0
I0105 20:51:08.929258  9290 net.cpp:434] score2_score2_0_split -> score2_score2_0_split_1
I0105 20:51:08.929265  9290 net.cpp:156] Setting up score2_score2_0_split
I0105 20:51:08.929270  9290 net.cpp:164] Top shape: 10 2 1 1200 (24000)
I0105 20:51:08.929275  9290 net.cpp:164] Top shape: 10 2 1 1200 (24000)
I0105 20:51:08.929280  9290 layer_factory.hpp:76] Creating layer loss
I0105 20:51:08.929286  9290 net.cpp:111] Creating Layer loss
I0105 20:51:08.929289  9290 net.cpp:478] loss <- score2_score2_0_split_0
I0105 20:51:08.929294  9290 net.cpp:478] loss <- label2_label2_0_split_0
I0105 20:51:08.929299  9290 net.cpp:434] loss -> loss
I0105 20:51:08.929306  9290 layer_factory.hpp:76] Creating layer loss
…
