…
average_loss: 200
stepvalue: 10000
I0103 22:51:07.270802 31537 solver.cpp:86] Creating training net from train_net file: fcn2_train.prototxt
I0103 22:51:07.271314 31537 net.cpp:50] Initializing net from parameters: 
name: "FCN"
force_backward: true
state {
  phase: TRAIN
}
layer {
  name: "data"
  type: "Data"
  top: "data"
  data_param {
    source: "train2_images_lmdb/"
    batch_size: 1
    backend: LMDB
  }
}
layer {
  name: "label"
  type: "Data"
  top: "label"
  data_param {
    source: "train2_labels_lmdb/"
    batch_size: 1
    backend: LMDB
  }
}
layer {
  name: "label2"
  type: "Reshape"
  bottom: "label"
  top: "label2"
  reshape_param {
    shape {
      dim: 1
      dim: 1
      dim: 1
      dim: 1200
    }
  }
}
layer {
  name: "conv1"
  type: "Convolution"
  bottom: "data"
  top: "conv1"
  param {
    lr_mult: 1
    decay_mult: 1
  }
  param {
    lr_mult: 2
    decay_mult: 0
  }
  convolution_param {
    num_output: 40
    pad: 50
    kernel_size: 5
    group: 1
    stride: 1
    weight_filler {
      type: "gaussian"
      mean: 0
      std: 0.01
    }
    bias_filler {
      type: "constant"
      value: 0.1
    }
  }
}
layer {
  name: "relu1"
  type: "ReLU"
  bottom: "conv1"
  top: "conv1"
}
layer {
  name: "pool1"
  type: "Pooling"
  bottom: "conv1"
  top: "pool1"
  pooling_param {
    pool: MAX
    kernel_size: 2
    stride: 2
  }
}
layer {
  name: "conv2"
  type: "Convolution"
  bottom: "pool1"
  top: "conv2"
  param {
    lr_mult: 1
    decay_mult: 1
  }
  param {
    lr_mult: 2
    decay_mult: 0
  }
  convolution_param {
    num_output: 40
    pad: 0
    kernel_size: 3
    group: 1
    stride: 1
    weight_filler {
      type: "gaussian"
      mean: 0
      std: 0.01
    }
    bias_filler {
      type: "constant"
      value: 0.1
    }
  }
}
layer {
  name: "relu2"
  type: "ReLU"
  bottom: "conv2"
  top: "conv2"
}
layer {
  name: "pool2"
  type: "Pooling"
  bottom: "conv2"
  top: "pool2"
  pooling_param {
    pool: MAX
    kernel_size: 2
    stride: 2
  }
}
layer {
  name: "flatten"
  type: "Flatten"
  bottom: "pool2"
  top: "flatten"
}
layer {
  name: "drop"
  type: "Dropout"
  bottom: "flatten"
  top: "flatten"
  dropout_param {
    dropout_ratio: 0.1
  }
}
layer {
  name: "score"
  type: "InnerProduct"
  bottom: "flatten"
  top: "score"
  inner_product_param {
    num_output: 2400
  }
}
layer {
  name: "score2"
  type: "Reshape"
  bottom: "score"
  top: "score2"
  reshape_param {
    shape {
      dim: 1
      dim: 2
      dim: 1
      dim: 1200
    }
  }
}
layer {
  name: "loss"
  type: "SoftmaxWithLoss"
  bottom: "score2"
  bottom: "label2"
  top: "loss"
  loss_param {
    normalize: true
  }
}
I0103 22:51:07.271401 31537 layer_factory.hpp:76] Creating layer data
I0103 22:51:07.271495 31537 net.cpp:111] Creating Layer data
I0103 22:51:07.271509 31537 net.cpp:434] data -> data
I0103 22:51:07.272042 31550 db_lmdb.cpp:22] Opened lmdb train2_images_lmdb/
I0103 22:51:07.274031 31537 data_layer.cpp:44] output data size: 1,29,64,64
I0103 22:51:07.284878 31537 net.cpp:156] Setting up data
I0103 22:51:07.284917 31537 net.cpp:164] Top shape: 1 29 64 64 (118784)
I0103 22:51:07.284925 31537 layer_factory.hpp:76] Creating layer label
I0103 22:51:07.284970 31537 net.cpp:111] Creating Layer label
I0103 22:51:07.284986 31537 net.cpp:434] label -> label
I0103 22:51:07.285755 31552 db_lmdb.cpp:22] Opened lmdb train2_labels_lmdb/
I0103 22:51:07.285804 31537 data_layer.cpp:44] output data size: 1,1200,1,1
I0103 22:51:07.286386 31537 net.cpp:156] Setting up label
I0103 22:51:07.286403 31537 net.cpp:164] Top shape: 1 1200 1 1 (1200)
I0103 22:51:07.286412 31537 layer_factory.hpp:76] Creating layer label2
I0103 22:51:07.286434 31537 net.cpp:111] Creating Layer label2
I0103 22:51:07.286453 31537 net.cpp:478] label2 <- label
I0103 22:51:07.286469 31537 net.cpp:434] label2 -> label2
I0103 22:51:07.286489 31537 net.cpp:156] Setting up label2
I0103 22:51:07.286499 31537 net.cpp:164] Top shape: 1 1 1 1200 (1200)
I0103 22:51:07.286505 31537 layer_factory.hpp:76] Creating layer conv1
I0103 22:51:07.286517 31537 net.cpp:111] Creating Layer conv1
I0103 22:51:07.286523 31537 net.cpp:478] conv1 <- data
I0103 22:51:07.286532 31537 net.cpp:434] conv1 -> conv1
I0103 22:51:07.544867 31537 net.cpp:156] Setting up conv1
I0103 22:51:07.544906 31537 net.cpp:164] Top shape: 1 40 160 160 (1024000)
I0103 22:51:07.544927 31537 layer_factory.hpp:76] Creating layer relu1
I0103 22:51:07.544939 31537 net.cpp:111] Creating Layer relu1
I0103 22:51:07.544944 31537 net.cpp:478] relu1 <- conv1
I0103 22:51:07.544950 31537 net.cpp:420] relu1 -> conv1 (in-place)
I0103 22:51:07.545053 31537 net.cpp:156] Setting up relu1
I0103 22:51:07.545061 31537 net.cpp:164] Top shape: 1 40 160 160 (1024000)
I0103 22:51:07.545066 31537 layer_factory.hpp:76] Creating layer pool1
I0103 22:51:07.545074 31537 net.cpp:111] Creating Layer pool1
I0103 22:51:07.545078 31537 net.cpp:478] pool1 <- conv1
I0103 22:51:07.545083 31537 net.cpp:434] pool1 -> pool1
I0103 22:51:07.545269 31537 net.cpp:156] Setting up pool1
I0103 22:51:07.545280 31537 net.cpp:164] Top shape: 1 40 80 80 (256000)
I0103 22:51:07.545285 31537 layer_factory.hpp:76] Creating layer conv2
I0103 22:51:07.545292 31537 net.cpp:111] Creating Layer conv2
I0103 22:51:07.545296 31537 net.cpp:478] conv2 <- pool1
I0103 22:51:07.545301 31537 net.cpp:434] conv2 -> conv2
I0103 22:51:07.546308 31537 net.cpp:156] Setting up conv2
I0103 22:51:07.546320 31537 net.cpp:164] Top shape: 1 40 78 78 (243360)
I0103 22:51:07.546329 31537 layer_factory.hpp:76] Creating layer relu2
I0103 22:51:07.546334 31537 net.cpp:111] Creating Layer relu2
I0103 22:51:07.546339 31537 net.cpp:478] relu2 <- conv2
I0103 22:51:07.546342 31537 net.cpp:420] relu2 -> conv2 (in-place)
I0103 22:51:07.546437 31537 net.cpp:156] Setting up relu2
I0103 22:51:07.546443 31537 net.cpp:164] Top shape: 1 40 78 78 (243360)
I0103 22:51:07.546447 31537 layer_factory.hpp:76] Creating layer pool2
I0103 22:51:07.546454 31537 net.cpp:111] Creating Layer pool2
I0103 22:51:07.546458 31537 net.cpp:478] pool2 <- conv2
I0103 22:51:07.546463 31537 net.cpp:434] pool2 -> pool2
I0103 22:51:07.546629 31537 net.cpp:156] Setting up pool2
I0103 22:51:07.546639 31537 net.cpp:164] Top shape: 1 40 39 39 (60840)
I0103 22:51:07.546643 31537 layer_factory.hpp:76] Creating layer flatten
I0103 22:51:07.546648 31537 net.cpp:111] Creating Layer flatten
I0103 22:51:07.546653 31537 net.cpp:478] flatten <- pool2
I0103 22:51:07.546656 31537 net.cpp:434] flatten -> flatten
I0103 22:51:07.546663 31537 net.cpp:156] Setting up flatten
I0103 22:51:07.546668 31537 net.cpp:164] Top shape: 1 60840 (60840)
I0103 22:51:07.546670 31537 layer_factory.hpp:76] Creating layer drop
I0103 22:51:07.546679 31537 net.cpp:111] Creating Layer drop
I0103 22:51:07.546682 31537 net.cpp:478] drop <- flatten
I0103 22:51:07.546686 31537 net.cpp:420] drop -> flatten (in-place)
I0103 22:51:07.546694 31537 net.cpp:156] Setting up drop
I0103 22:51:07.546699 31537 net.cpp:164] Top shape: 1 60840 (60840)
I0103 22:51:07.546701 31537 layer_factory.hpp:76] Creating layer score
I0103 22:51:07.546707 31537 net.cpp:111] Creating Layer score
I0103 22:51:07.546710 31537 net.cpp:478] score <- flatten
I0103 22:51:07.546715 31537 net.cpp:434] score -> score
I0103 22:51:07.754369 31537 net.cpp:156] Setting up score
I0103 22:51:07.754422 31537 net.cpp:164] Top shape: 1 2400 (2400)
I0103 22:51:07.754453 31537 layer_factory.hpp:76] Creating layer score2
I0103 22:51:07.754470 31537 net.cpp:111] Creating Layer score2
I0103 22:51:07.754479 31537 net.cpp:478] score2 <- score
I0103 22:51:07.754488 31537 net.cpp:434] score2 -> score2
I0103 22:51:07.754501 31537 net.cpp:156] Setting up score2
I0103 22:51:07.754508 31537 net.cpp:164] Top shape: 1 2 1 1200 (2400)
I0103 22:51:07.754518 31537 layer_factory.hpp:76] Creating layer loss
I0103 22:51:07.754727 31537 net.cpp:111] Creating Layer loss
I0103 22:51:07.754736 31537 net.cpp:478] loss <- score2
I0103 22:51:07.754744 31537 net.cpp:478] loss <- label2
I0103 22:51:07.754750 31537 net.cpp:434] loss -> loss
I0103 22:51:07.754768 31537 layer_factory.hpp:76] Creating layer loss
I0103 22:51:07.755000 31537 net.cpp:156] Setting up loss
…
I0103 22:51:07.755091 31537 net.cpp:299] Memory required for data: 12396900
I0103 22:51:07.755354 31537 solver.cpp:186] Creating test net (#0) specified by test_net file: fcn2_test.prototxt
I0103 22:51:07.755451 31537 net.cpp:50] Initializing net from parameters: 
name: "FCN"
force_backward: true
state {
  phase: TEST
}
layer {
  name: "data"
  type: "Data"
  top: "data"
  data_param {
    source: "test2_images_lmdb/"
    batch_size: 1
    backend: LMDB
  }
}
layer {
  name: "label"
  type: "Data"
  top: "label"
  data_param {
    source: "test2_labels_lmdb/"
    batch_size: 1
    backend: LMDB
  }
}
layer {
  name: "label2"
  type: "Reshape"
  bottom: "label"
  top: "label2"
  reshape_param {
    shape {
      dim: 1
      dim: 1
      dim: 1
      dim: 1200
    }
  }
}
layer {
  name: "conv1"
  type: "Convolution"
  bottom: "data"
  top: "conv1"
  param {
    lr_mult: 1
    decay_mult: 1
  }
  param {
    lr_mult: 2
    decay_mult: 0
  }
  convolution_param {
    num_output: 40
    pad: 50
    kernel_size: 5
    group: 1
    stride: 1
    weight_filler {
      type: "gaussian"
      mean: 0
      std: 0.01
    }
    bias_filler {
      type: "constant"
      value: 0.1
    }
  }
}
layer {
  name: "relu1"
  type: "ReLU"
  bottom: "conv1"
  top: "conv1"
}
layer {
  name: "pool1"
  type: "Pooling"
  bottom: "conv1"
  top: "pool1"
  pooling_param {
    pool: MAX
    kernel_size: 2
    stride: 2
  }
}
layer {
  name: "conv2"
  type: "Convolution"
  bottom: "pool1"
  top: "conv2"
  param {
    lr_mult: 1
    decay_mult: 1
  }
  param {
    lr_mult: 2
    decay_mult: 0
  }
  convolution_param {
    num_output: 40
    pad: 0
    kernel_size: 3
    group: 1
    stride: 1
    weight_filler {
      type: "gaussian"
      mean: 0
      std: 0.01
    }
    bias_filler {
      type: "constant"
      value: 0.1
    }
  }
}
layer {
  name: "relu2"
  type: "ReLU"
  bottom: "conv2"
  top: "conv2"
}
layer {
  name: "pool2"
  type: "Pooling"
  bottom: "conv2"
  top: "pool2"
  pooling_param {
    pool: MAX
    kernel_size: 2
    stride: 2
  }
}
layer {
  name: "flatten"
  type: "Flatten"
  bottom: "pool2"
  top: "flatten"
}
layer {
  name: "drop"
  type: "Dropout"
  bottom: "flatten"
  top: "flatten"
  dropout_param {
    dropout_ratio: 0.1
  }
}
layer {
  name: "score"
  type: "InnerProduct"
  bottom: "flatten"
  top: "score"
  inner_product_param {
    num_output: 2400
  }
}
layer {
  name: "score2"
  type: "Reshape"
  bottom: "score"
  top: "score2"
  reshape_param {
    shape {
      dim: 1
      dim: 2
      dim: 1
      dim: 1200
    }
  }
}
layer {
  name: "loss"
  type: "SoftmaxWithLoss"
  bottom: "score2"
  bottom: "label2"
  top: "loss"
  loss_param {
    normalize: true
  }
}
layer {
  name: "accuracy"
  type: "Accuracy"
  bottom: "score2"
  bottom: "label2"
  top: "accuracy"
}
I0103 22:51:07.755512 31537 layer_factory.hpp:76] Creating layer data
I0103 22:51:07.842002 31537 net.cpp:111] Creating Layer data
I0103 22:51:07.842048 31537 net.cpp:434] data -> data
I0103 22:51:07.842664 31554 db_lmdb.cpp:22] Opened lmdb test2_images_lmdb/
I0103 22:51:07.846422 31537 data_layer.cpp:44] output data size: 1,29,64,64
I0103 22:51:07.847255 31537 net.cpp:156] Setting up data
I0103 22:51:07.847272 31537 net.cpp:164] Top shape: 1 29 64 64 (118784)
I0103 22:51:07.847280 31537 layer_factory.hpp:76] Creating layer label
I0103 22:51:07.847312 31537 net.cpp:111] Creating Layer label
I0103 22:51:07.847321 31537 net.cpp:434] label -> label
I0103 22:51:07.848929 31556 db_lmdb.cpp:22] Opened lmdb test2_labels_lmdb/
I0103 22:51:07.849433 31537 data_layer.cpp:44] output data size: 1,1200,1,1
I0103 22:51:07.849566 31537 net.cpp:156] Setting up label
I0103 22:51:07.849578 31537 net.cpp:164] Top shape: 1 1200 1 1 (1200)
I0103 22:51:07.849583 31537 layer_factory.hpp:76] Creating layer label2
I0103 22:51:07.849592 31537 net.cpp:111] Creating Layer label2
I0103 22:51:07.849596 31537 net.cpp:478] label2 <- label
I0103 22:51:07.849602 31537 net.cpp:434] label2 -> label2
I0103 22:51:07.849612 31537 net.cpp:156] Setting up label2
I0103 22:51:07.849617 31537 net.cpp:164] Top shape: 1 1 1 1200 (1200)
I0103 22:51:07.849620 31537 layer_factory.hpp:76] Creating layer label2_label2_0_split
I0103 22:51:07.850201 31537 net.cpp:111] Creating Layer label2_label2_0_split
I0103 22:51:07.850216 31537 net.cpp:478] label2_label2_0_split <- label2
I0103 22:51:07.850224 31537 net.cpp:434] label2_label2_0_split -> label2_label2_0_split_0
I0103 22:51:07.850234 31537 net.cpp:434] label2_label2_0_split -> label2_label2_0_split_1
I0103 22:51:07.850244 31537 net.cpp:156] Setting up label2_label2_0_split
I0103 22:51:07.850250 31537 net.cpp:164] Top shape: 1 1 1 1200 (1200)
I0103 22:51:07.850253 31537 net.cpp:164] Top shape: 1 1 1 1200 (1200)
I0103 22:51:07.850257 31537 layer_factory.hpp:76] Creating layer conv1
I0103 22:51:07.850265 31537 net.cpp:111] Creating Layer conv1
I0103 22:51:07.850268 31537 net.cpp:478] conv1 <- data
I0103 22:51:07.850273 31537 net.cpp:434] conv1 -> conv1
I0103 22:51:07.851627 31537 net.cpp:156] Setting up conv1
I0103 22:51:07.851640 31537 net.cpp:164] Top shape: 1 40 160 160 (1024000)
I0103 22:51:07.851650 31537 layer_factory.hpp:76] Creating layer relu1
I0103 22:51:07.851656 31537 net.cpp:111] Creating Layer relu1
I0103 22:51:07.851660 31537 net.cpp:478] relu1 <- conv1
I0103 22:51:07.851665 31537 net.cpp:420] relu1 -> conv1 (in-place)
I0103 22:51:07.851871 31537 net.cpp:156] Setting up relu1
I0103 22:51:07.851883 31537 net.cpp:164] Top shape: 1 40 160 160 (1024000)
I0103 22:51:07.851889 31537 layer_factory.hpp:76] Creating layer pool1
I0103 22:51:07.851897 31537 net.cpp:111] Creating Layer pool1
I0103 22:51:07.851902 31537 net.cpp:478] pool1 <- conv1
I0103 22:51:07.851905 31537 net.cpp:434] pool1 -> pool1
I0103 22:51:07.852008 31537 net.cpp:156] Setting up pool1
I0103 22:51:07.852016 31537 net.cpp:164] Top shape: 1 40 80 80 (256000)
I0103 22:51:07.852022 31537 layer_factory.hpp:76] Creating layer conv2
I0103 22:51:07.852030 31537 net.cpp:111] Creating Layer conv2
I0103 22:51:07.852032 31537 net.cpp:478] conv2 <- pool1
I0103 22:51:07.852037 31537 net.cpp:434] conv2 -> conv2
I0103 22:51:07.852918 31537 net.cpp:156] Setting up conv2
I0103 22:51:07.852936 31537 net.cpp:164] Top shape: 1 40 78 78 (243360)
I0103 22:51:07.852952 31537 layer_factory.hpp:76] Creating layer relu2
I0103 22:51:07.852963 31537 net.cpp:111] Creating Layer relu2
I0103 22:51:07.852975 31537 net.cpp:478] relu2 <- conv2
I0103 22:51:07.852989 31537 net.cpp:420] relu2 -> conv2 (in-place)
I0103 22:51:07.853175 31537 net.cpp:156] Setting up relu2
I0103 22:51:07.853185 31537 net.cpp:164] Top shape: 1 40 78 78 (243360)
I0103 22:51:07.853189 31537 layer_factory.hpp:76] Creating layer pool2
I0103 22:51:07.853194 31537 net.cpp:111] Creating Layer pool2
I0103 22:51:07.853199 31537 net.cpp:478] pool2 <- conv2
I0103 22:51:07.853204 31537 net.cpp:434] pool2 -> pool2
I0103 22:51:07.853309 31537 net.cpp:156] Setting up pool2
I0103 22:51:07.853317 31537 net.cpp:164] Top shape: 1 40 39 39 (60840)
I0103 22:51:07.853322 31537 layer_factory.hpp:76] Creating layer flatten
I0103 22:51:07.853327 31537 net.cpp:111] Creating Layer flatten
I0103 22:51:07.853329 31537 net.cpp:478] flatten <- pool2
I0103 22:51:07.853334 31537 net.cpp:434] flatten -> flatten
I0103 22:51:07.853340 31537 net.cpp:156] Setting up flatten
I0103 22:51:07.853345 31537 net.cpp:164] Top shape: 1 60840 (60840)
I0103 22:51:07.853348 31537 layer_factory.hpp:76] Creating layer drop
I0103 22:51:07.853353 31537 net.cpp:111] Creating Layer drop
I0103 22:51:07.853358 31537 net.cpp:478] drop <- flatten
I0103 22:51:07.853361 31537 net.cpp:420] drop -> flatten (in-place)
I0103 22:51:07.853366 31537 net.cpp:156] Setting up drop
I0103 22:51:07.853370 31537 net.cpp:164] Top shape: 1 60840 (60840)
I0103 22:51:07.853374 31537 layer_factory.hpp:76] Creating layer score
I0103 22:51:07.853379 31537 net.cpp:111] Creating Layer score
I0103 22:51:07.853384 31537 net.cpp:478] score <- flatten
I0103 22:51:07.853387 31537 net.cpp:434] score -> score
I0103 22:51:08.054847 31537 net.cpp:156] Setting up score
I0103 22:51:08.054890 31537 net.cpp:164] Top shape: 1 2400 (2400)
I0103 22:51:08.054908 31537 layer_factory.hpp:76] Creating layer score2
I0103 22:51:08.054924 31537 net.cpp:111] Creating Layer score2
I0103 22:51:08.054932 31537 net.cpp:478] score2 <- score
I0103 22:51:08.054955 31537 net.cpp:434] score2 -> score2
I0103 22:51:08.054968 31537 net.cpp:156] Setting up score2
I0103 22:51:08.054975 31537 net.cpp:164] Top shape: 1 2 1 1200 (2400)
I0103 22:51:08.054977 31537 layer_factory.hpp:76] Creating layer score2_score2_0_split
I0103 22:51:08.054983 31537 net.cpp:111] Creating Layer score2_score2_0_split
I0103 22:51:08.054987 31537 net.cpp:478] score2_score2_0_split <- score2
I0103 22:51:08.054991 31537 net.cpp:434] score2_score2_0_split -> score2_score2_0_split_0
I0103 22:51:08.054996 31537 net.cpp:434] score2_score2_0_split -> score2_score2_0_split_1
I0103 22:51:08.055002 31537 net.cpp:156] Setting up score2_score2_0_split
I0103 22:51:08.055006 31537 net.cpp:164] Top shape: 1 2 1 1200 (2400)
I0103 22:51:08.055011 31537 net.cpp:164] Top shape: 1 2 1 1200 (2400)
I0103 22:51:08.055013 31537 layer_factory.hpp:76] Creating layer loss
I0103 22:51:08.055021 31537 net.cpp:111] Creating Layer loss
I0103 22:51:08.055024 31537 net.cpp:478] loss <- score2_score2_0_split_0
I0103 22:51:08.055028 31537 net.cpp:478] loss <- label2_label2_0_split_0
I0103 22:51:08.055032 31537 net.cpp:434] loss -> loss
I0103 22:51:08.055040 31537 layer_factory.hpp:76] Creating layer loss
…
