…
I1229 02:38:21.859474  6049 solver.cpp:86] Creating training net from train_net file: fcn_train.prototxt
I1229 02:38:21.859922  6049 net.cpp:50] Initializing net from parameters: 
name: "FCN"
force_backward: true
state {
  phase: TRAIN
}
layer {
  name: "data"
  type: "Data"
  top: "data"
  transform_param {
    mirror: false
    crop_size: 0
    mean_value: 77
  }
  data_param {
    source: "train_images_lmdb/"
    batch_size: 1
    backend: LMDB
  }
}
layer {
  name: "label"
  type: "Data"
  top: "label"
  data_param {
    source: "train_labels_lmdb/"
    batch_size: 1
    backend: LMDB
  }
}
layer {
  name: "conv1"
  type: "Convolution"
  bottom: "data"
  top: "conv1"
  param {
    lr_mult: 1
    decay_mult: 1
  }
  param {
    lr_mult: 2
    decay_mult: 0
  }
  convolution_param {
    num_output: 100
    pad: 50
    kernel_size: 5
    group: 1
    stride: 2
    weight_filler {
      type: "gaussian"
      mean: 0
      std: 0.01
    }
    bias_filler {
      type: "constant"
      value: 0.1
    }
  }
}
layer {
  name: "relu1"
  type: "ReLU"
  bottom: "conv1"
  top: "conv1"
}
layer {
  name: "pool1"
  type: "Pooling"
  bottom: "conv1"
  top: "pool1"
  pooling_param {
    pool: MAX
    kernel_size: 2
    stride: 2
  }
}
layer {
  name: "conv2"
  type: "Convolution"
  bottom: "pool1"
  top: "conv2"
  param {
    lr_mult: 1
    decay_mult: 1
  }
  param {
    lr_mult: 2
    decay_mult: 0
  }
  convolution_param {
    num_output: 200
    pad: 0
    kernel_size: 5
    group: 1
    stride: 2
    weight_filler {
      type: "gaussian"
      mean: 0
      std: 0.01
    }
    bias_filler {
      type: "constant"
      value: 0.1
    }
  }
}
layer {
  name: "relu2"
  type: "ReLU"
  bottom: "conv2"
  top: "conv2"
}
layer {
  name: "pool2"
  type: "Pooling"
  bottom: "conv2"
  top: "pool2"
  pooling_param {
    pool: MAX
    kernel_size: 2
    stride: 2
  }
}
layer {
  name: "conv3"
  type: "Convolution"
  bottom: "pool2"
  top: "conv3"
  param {
    lr_mult: 1
    decay_mult: 1
  }
  param {
    lr_mult: 2
    decay_mult: 0
  }
  convolution_param {
    num_output: 300
    pad: 0
    kernel_size: 3
    group: 1
    stride: 1
    weight_filler {
      type: "gaussian"
      mean: 0
      std: 0.01
    }
    bias_filler {
      type: "constant"
      value: 0.1
    }
  }
}
layer {
  name: "relu3"
  type: "ReLU"
  bottom: "conv3"
  top: "conv3"
}
layer {
  name: "conv4"
  type: "Convolution"
  bottom: "conv3"
  top: "conv4"
  param {
    lr_mult: 1
    decay_mult: 1
  }
  param {
    lr_mult: 2
    decay_mult: 0
  }
  convolution_param {
    num_output: 300
    pad: 0
    kernel_size: 3
    group: 1
    stride: 1
    weight_filler {
      type: "gaussian"
      mean: 0
      std: 0.01
    }
    bias_filler {
      type: "constant"
      value: 0.1
    }
  }
}
layer {
  name: "relu4"
  type: "ReLU"
  bottom: "conv4"
  top: "conv4"
}
layer {
  name: "drop"
  type: "Dropout"
  bottom: "conv4"
  top: "conv4"
  dropout_param {
    dropout_ratio: 0.5
  }
}
layer {
  name: "score_classes"
  type: "Convolution"
  bottom: "conv4"
  top: "score_classes"
  param {
    lr_mult: 1
    decay_mult: 1
  }
  param {
    lr_mult: 2
    decay_mult: 0
  }
  convolution_param {
    num_output: 2
    pad: 0
    kernel_size: 1
    group: 1
    stride: 1
    weight_filler {
      type: "gaussian"
      mean: 0
      std: 0.01
    }
    bias_filler {
      type: "constant"
      value: 0.1
    }
  }
}
layer {
  name: "upscore"
  type: "Deconvolution"
  bottom: "score_classes"
  top: "upscore"
  param {
    lr_mult: 1
    decay_mult: 1
  }
  param {
    lr_mult: 2
    decay_mult: 0
  }
  convolution_param {
    num_output: 2
    bias_term: true
    pad: 8
    kernel_size: 31
    stride: 16
    weight_filler {
      type: "bilinear"
    }
    bias_filler {
      type: "constant"
      value: 0.1
    }
  }
}
layer {
  name: "score"
  type: "Crop"
  bottom: "upscore"
  bottom: "data"
  top: "score"
}
layer {
  name: "loss"
  type: "SoftmaxWithLoss"
  bottom: "score"
  bottom: "label"
  top: "loss"
  loss_param {
    normalize: true
  }
}
I1229 02:38:21.860018  6049 layer_factory.hpp:76] Creating layer data
I1229 02:38:21.860086  6049 net.cpp:111] Creating Layer data
I1229 02:38:21.860097  6049 net.cpp:434] data -> data
I1229 02:38:21.860641  6061 db_lmdb.cpp:22] Opened lmdb train_images_lmdb/
I1229 02:38:21.860927  6049 data_layer.cpp:44] output data size: 1,1,256,256
I1229 02:38:21.865075  6049 net.cpp:156] Setting up data
I1229 02:38:21.865097  6049 net.cpp:164] Top shape: 1 1 256 256 (65536)
I1229 02:38:21.865105  6049 layer_factory.hpp:76] Creating layer data_data_0_split
I1229 02:38:21.865118  6049 net.cpp:111] Creating Layer data_data_0_split
I1229 02:38:21.865123  6049 net.cpp:478] data_data_0_split <- data
I1229 02:38:21.865129  6049 net.cpp:434] data_data_0_split -> data_data_0_split_0
I1229 02:38:21.865136  6049 net.cpp:434] data_data_0_split -> data_data_0_split_1
I1229 02:38:21.865146  6049 net.cpp:156] Setting up data_data_0_split
I1229 02:38:21.865150  6049 net.cpp:164] Top shape: 1 1 256 256 (65536)
I1229 02:38:21.865154  6049 net.cpp:164] Top shape: 1 1 256 256 (65536)
I1229 02:38:21.865159  6049 layer_factory.hpp:76] Creating layer label
I1229 02:38:21.865278  6049 net.cpp:111] Creating Layer label
I1229 02:38:21.865285  6049 net.cpp:434] label -> label
I1229 02:38:21.865847  6063 db_lmdb.cpp:22] Opened lmdb train_labels_lmdb/
I1229 02:38:21.865936  6049 data_layer.cpp:44] output data size: 1,1,256,256
I1229 02:38:21.866638  6049 net.cpp:156] Setting up label
I1229 02:38:21.866654  6049 net.cpp:164] Top shape: 1 1 256 256 (65536)
I1229 02:38:21.866662  6049 layer_factory.hpp:76] Creating layer conv1
I1229 02:38:21.866674  6049 net.cpp:111] Creating Layer conv1
I1229 02:38:21.866678  6049 net.cpp:478] conv1 <- data_data_0_split_0
I1229 02:38:21.866688  6049 net.cpp:434] conv1 -> conv1
I1229 02:38:21.949671  6049 net.cpp:156] Setting up conv1
I1229 02:38:21.949712  6049 net.cpp:164] Top shape: 1 100 176 176 (3097600)
I1229 02:38:21.949729  6049 layer_factory.hpp:76] Creating layer relu1
I1229 02:38:21.949740  6049 net.cpp:111] Creating Layer relu1
I1229 02:38:21.949745  6049 net.cpp:478] relu1 <- conv1
I1229 02:38:21.949750  6049 net.cpp:420] relu1 -> conv1 (in-place)
I1229 02:38:21.949854  6049 net.cpp:156] Setting up relu1
I1229 02:38:21.949862  6049 net.cpp:164] Top shape: 1 100 176 176 (3097600)
I1229 02:38:21.949867  6049 layer_factory.hpp:76] Creating layer pool1
I1229 02:38:21.949875  6049 net.cpp:111] Creating Layer pool1
I1229 02:38:21.949879  6049 net.cpp:478] pool1 <- conv1
I1229 02:38:21.949885  6049 net.cpp:434] pool1 -> pool1
I1229 02:38:21.950073  6049 net.cpp:156] Setting up pool1
I1229 02:38:21.950084  6049 net.cpp:164] Top shape: 1 100 88 88 (774400)
I1229 02:38:21.950088  6049 layer_factory.hpp:76] Creating layer conv2
I1229 02:38:21.950098  6049 net.cpp:111] Creating Layer conv2
I1229 02:38:21.950101  6049 net.cpp:478] conv2 <- pool1
I1229 02:38:21.950106  6049 net.cpp:434] conv2 -> conv2
I1229 02:38:21.960839  6049 net.cpp:156] Setting up conv2
I1229 02:38:21.960854  6049 net.cpp:164] Top shape: 1 200 42 42 (352800)
I1229 02:38:21.960862  6049 layer_factory.hpp:76] Creating layer relu2
I1229 02:38:21.960867  6049 net.cpp:111] Creating Layer relu2
I1229 02:38:21.960871  6049 net.cpp:478] relu2 <- conv2
I1229 02:38:21.960876  6049 net.cpp:420] relu2 -> conv2 (in-place)
I1229 02:38:21.960969  6049 net.cpp:156] Setting up relu2
I1229 02:38:21.960976  6049 net.cpp:164] Top shape: 1 200 42 42 (352800)
I1229 02:38:21.960980  6049 layer_factory.hpp:76] Creating layer pool2
I1229 02:38:21.960988  6049 net.cpp:111] Creating Layer pool2
I1229 02:38:21.960996  6049 net.cpp:478] pool2 <- conv2
I1229 02:38:21.961007  6049 net.cpp:434] pool2 -> pool2
I1229 02:38:21.961189  6049 net.cpp:156] Setting up pool2
I1229 02:38:21.961199  6049 net.cpp:164] Top shape: 1 200 21 21 (88200)
I1229 02:38:21.961204  6049 layer_factory.hpp:76] Creating layer conv3
I1229 02:38:21.961210  6049 net.cpp:111] Creating Layer conv3
I1229 02:38:21.961213  6049 net.cpp:478] conv3 <- pool2
I1229 02:38:21.961218  6049 net.cpp:434] conv3 -> conv3
I1229 02:38:21.972978  6049 net.cpp:156] Setting up conv3
I1229 02:38:21.973000  6049 net.cpp:164] Top shape: 1 300 19 19 (108300)
I1229 02:38:21.973008  6049 layer_factory.hpp:76] Creating layer relu3
I1229 02:38:21.973014  6049 net.cpp:111] Creating Layer relu3
I1229 02:38:21.973018  6049 net.cpp:478] relu3 <- conv3
I1229 02:38:21.973023  6049 net.cpp:420] relu3 -> conv3 (in-place)
I1229 02:38:21.973121  6049 net.cpp:156] Setting up relu3
I1229 02:38:21.973129  6049 net.cpp:164] Top shape: 1 300 19 19 (108300)
I1229 02:38:21.973134  6049 layer_factory.hpp:76] Creating layer conv4
I1229 02:38:21.973146  6049 net.cpp:111] Creating Layer conv4
I1229 02:38:21.973150  6049 net.cpp:478] conv4 <- conv3
I1229 02:38:21.973155  6049 net.cpp:434] conv4 -> conv4
I1229 02:38:21.990175  6049 net.cpp:156] Setting up conv4
I1229 02:38:21.990193  6049 net.cpp:164] Top shape: 1 300 17 17 (86700)
I1229 02:38:21.990200  6049 layer_factory.hpp:76] Creating layer relu4
I1229 02:38:21.990207  6049 net.cpp:111] Creating Layer relu4
I1229 02:38:21.990211  6049 net.cpp:478] relu4 <- conv4
I1229 02:38:21.990216  6049 net.cpp:420] relu4 -> conv4 (in-place)
I1229 02:38:21.990313  6049 net.cpp:156] Setting up relu4
I1229 02:38:21.990319  6049 net.cpp:164] Top shape: 1 300 17 17 (86700)
I1229 02:38:21.990322  6049 layer_factory.hpp:76] Creating layer drop
I1229 02:38:21.990339  6049 net.cpp:111] Creating Layer drop
I1229 02:38:21.990344  6049 net.cpp:478] drop <- conv4
I1229 02:38:21.990348  6049 net.cpp:420] drop -> conv4 (in-place)
I1229 02:38:21.990357  6049 net.cpp:156] Setting up drop
I1229 02:38:21.990361  6049 net.cpp:164] Top shape: 1 300 17 17 (86700)
I1229 02:38:21.990365  6049 layer_factory.hpp:76] Creating layer score_classes
I1229 02:38:21.990371  6049 net.cpp:111] Creating Layer score_classes
I1229 02:38:21.990375  6049 net.cpp:478] score_classes <- conv4
I1229 02:38:21.990380  6049 net.cpp:434] score_classes -> score_classes
I1229 02:38:21.990861  6049 net.cpp:156] Setting up score_classes
I1229 02:38:21.990871  6049 net.cpp:164] Top shape: 1 2 17 17 (578)
I1229 02:38:21.990880  6049 layer_factory.hpp:76] Creating layer upscore
I1229 02:38:21.990886  6049 net.cpp:111] Creating Layer upscore
I1229 02:38:21.990890  6049 net.cpp:478] upscore <- score_classes
I1229 02:38:21.990895  6049 net.cpp:434] upscore -> upscore
I1229 02:38:21.991273  6049 net.cpp:156] Setting up upscore
I1229 02:38:21.991283  6049 net.cpp:164] Top shape: 1 2 271 271 (146882)
I1229 02:38:21.991289  6049 layer_factory.hpp:76] Creating layer score
I1229 02:38:21.991299  6049 net.cpp:111] Creating Layer score
I1229 02:38:21.991303  6049 net.cpp:478] score <- upscore
I1229 02:38:21.991308  6049 net.cpp:478] score <- data_data_0_split_1
I1229 02:38:21.991312  6049 net.cpp:434] score -> score
I1229 02:38:21.991343  6049 net.cpp:156] Setting up score
I1229 02:38:21.991348  6049 net.cpp:164] Top shape: 1 2 256 256 (131072)
I1229 02:38:21.991350  6049 layer_factory.hpp:76] Creating layer loss
I1229 02:38:21.991356  6049 net.cpp:111] Creating Layer loss
I1229 02:38:21.991359  6049 net.cpp:478] loss <- score
I1229 02:38:21.991364  6049 net.cpp:478] loss <- label
I1229 02:38:21.991367  6049 net.cpp:434] loss -> loss
I1229 02:38:21.991375  6049 layer_factory.hpp:76] Creating layer loss
I1229 02:38:21.991641  6049 net.cpp:156] Setting up loss
…
I1229 02:38:21.992100  6049 solver.cpp:186] Creating test net (#0) specified by test_net file: fcn_test.prototxt
I1229 02:38:21.992213  6049 net.cpp:50] Initializing net from parameters: 
name: "FCN"
force_backward: true
state {
  phase: TEST
}
layer {
  name: "data"
  type: "Data"
  top: "data"
  transform_param {
    mirror: false
    crop_size: 0
    mean_value: 77
  }
  data_param {
    source: "val_images_lmdb/"
    batch_size: 1
    backend: LMDB
  }
}
layer {
  name: "label"
  type: "Data"
  top: "label"
  data_param {
    source: "val_labels_lmdb/"
    batch_size: 1
    backend: LMDB
  }
}
layer {
  name: "conv1"
  type: "Convolution"
  bottom: "data"
  top: "conv1"
  param {
    lr_mult: 1
    decay_mult: 1
  }
  param {
    lr_mult: 2
    decay_mult: 0
  }
  convolution_param {
    num_output: 100
    pad: 50
    kernel_size: 5
    group: 1
    stride: 2
    weight_filler {
      type: "gaussian"
      mean: 0
      std: 0.01
    }
    bias_filler {
      type: "constant"
      value: 0.1
    }
  }
}
layer {
  name: "relu1"
  type: "ReLU"
  bottom: "conv1"
  top: "conv1"
}
layer {
  name: "pool1"
  type: "Pooling"
  bottom: "conv1"
  top: "pool1"
  pooling_param {
    pool: MAX
    kernel_size: 2
    stride: 2
  }
}
layer {
  name: "conv2"
  type: "Convolution"
  bottom: "pool1"
  top: "conv2"
  param {
    lr_mult: 1
    decay_mult: 1
  }
  param {
    lr_mult: 2
    decay_mult: 0
  }
  convolution_param {
    num_output: 200
    pad: 0
    kernel_size: 5
    group: 1
    stride: 2
    weight_filler {
      type: "gaussian"
      mean: 0
      std: 0.01
    }
    bias_filler {
      type: "constant"
      value: 0.1
    }
  }
}
layer {
  name: "relu2"
  type: "ReLU"
  bottom: "conv2"
  top: "conv2"
}
layer {
  name: "pool2"
  type: "Pooling"
  bottom: "conv2"
  top: "pool2"
  pooling_param {
    pool: MAX
    kernel_size: 2
    stride: 2
  }
}
layer {
  name: "conv3"
  type: "Convolution"
  bottom: "pool2"
  top: "conv3"
  param {
    lr_mult: 1
    decay_mult: 1
  }
  param {
    lr_mult: 2
    decay_mult: 0
  }
  convolution_param {
    num_output: 300
    pad: 0
    kernel_size: 3
    group: 1
    stride: 1
    weight_filler {
      type: "gaussian"
      mean: 0
      std: 0.01
    }
    bias_filler {
      type: "constant"
      value: 0.1
    }
  }
}
layer {
  name: "relu3"
  type: "ReLU"
  bottom: "conv3"
  top: "conv3"
}
layer {
  name: "conv4"
  type: "Convolution"
  bottom: "conv3"
  top: "conv4"
  param {
    lr_mult: 1
    decay_mult: 1
  }
  param {
    lr_mult: 2
    decay_mult: 0
  }
  convolution_param {
    num_output: 300
    pad: 0
    kernel_size: 3
    group: 1
    stride: 1
    weight_filler {
      type: "gaussian"
      mean: 0
      std: 0.01
    }
    bias_filler {
      type: "constant"
      value: 0.1
    }
  }
}
layer {
  name: "relu4"
  type: "ReLU"
  bottom: "conv4"
  top: "conv4"
}
layer {
  name: "drop"
  type: "Dropout"
  bottom: "conv4"
  top: "conv4"
  dropout_param {
    dropout_ratio: 0.5
  }
}
layer {
  name: "score_classes"
  type: "Convolution"
  bottom: "conv4"
  top: "score_classes"
  param {
    lr_mult: 1
    decay_mult: 1
  }
  param {
    lr_mult: 2
    decay_mult: 0
  }
  convolution_param {
    num_output: 2
    pad: 0
    kernel_size: 1
    group: 1
    stride: 1
    weight_filler {
      type: "gaussian"
      mean: 0
      std: 0.01
    }
    bias_filler {
      type: "constant"
      value: 0.1
    }
  }
}
layer {
  name: "upscore"
  type: "Deconvolution"
  bottom: "score_classes"
  top: "upscore"
  param {
    lr_mult: 1
    decay_mult: 1
  }
  param {
    lr_mult: 2
    decay_mult: 0
  }
  convolution_param {
    num_output: 2
    bias_term: true
    pad: 8
    kernel_size: 31
    stride: 16
    weight_filler {
      type: "bilinear"
    }
    bias_filler {
      type: "constant"
      value: 0.1
    }
  }
}
layer {
  name: "score"
  type: "Crop"
  bottom: "upscore"
  bottom: "data"
  top: "score"
}
layer {
  name: "loss"
  type: "SoftmaxWithLoss"
  bottom: "score"
  bottom: "label"
  top: "loss"
  loss_param {
    normalize: true
  }
}
layer {
  name: "accuracy"
  type: "Accuracy"
  bottom: "score"
  bottom: "label"
  top: "accuracy"
}
I1229 02:38:21.992280  6049 layer_factory.hpp:76] Creating layer data
I1229 02:38:21.992323  6049 net.cpp:111] Creating Layer data
I1229 02:38:21.992331  6049 net.cpp:434] data -> data
I1229 02:38:21.992867  6065 db_lmdb.cpp:22] Opened lmdb val_images_lmdb/
I1229 02:38:21.993136  6049 data_layer.cpp:44] output data size: 1,1,256,256
I1229 02:38:21.993710  6049 net.cpp:156] Setting up data
I1229 02:38:21.993722  6049 net.cpp:164] Top shape: 1 1 256 256 (65536)
I1229 02:38:21.993728  6049 layer_factory.hpp:76] Creating layer data_data_0_split
I1229 02:38:21.993734  6049 net.cpp:111] Creating Layer data_data_0_split
I1229 02:38:21.993738  6049 net.cpp:478] data_data_0_split <- data
I1229 02:38:21.993742  6049 net.cpp:434] data_data_0_split -> data_data_0_split_0
I1229 02:38:21.993749  6049 net.cpp:434] data_data_0_split -> data_data_0_split_1
I1229 02:38:21.993755  6049 net.cpp:156] Setting up data_data_0_split
I1229 02:38:21.993760  6049 net.cpp:164] Top shape: 1 1 256 256 (65536)
I1229 02:38:21.993763  6049 net.cpp:164] Top shape: 1 1 256 256 (65536)
I1229 02:38:21.993767  6049 layer_factory.hpp:76] Creating layer label
I1229 02:38:21.993791  6049 net.cpp:111] Creating Layer label
I1229 02:38:21.993798  6049 net.cpp:434] label -> label
I1229 02:38:21.994484  6067 db_lmdb.cpp:22] Opened lmdb val_labels_lmdb/
I1229 02:38:21.994566  6049 data_layer.cpp:44] output data size: 1,1,256,256
I1229 02:38:21.995087  6049 net.cpp:156] Setting up label
I1229 02:38:21.995098  6049 net.cpp:164] Top shape: 1 1 256 256 (65536)
I1229 02:38:21.995103  6049 layer_factory.hpp:76] Creating layer label_label_0_split
I1229 02:38:21.995108  6049 net.cpp:111] Creating Layer label_label_0_split
I1229 02:38:21.995112  6049 net.cpp:478] label_label_0_split <- label
I1229 02:38:21.995120  6049 net.cpp:434] label_label_0_split -> label_label_0_split_0
I1229 02:38:21.995126  6049 net.cpp:434] label_label_0_split -> label_label_0_split_1
I1229 02:38:21.995132  6049 net.cpp:156] Setting up label_label_0_split
I1229 02:38:21.995136  6049 net.cpp:164] Top shape: 1 1 256 256 (65536)
I1229 02:38:21.995141  6049 net.cpp:164] Top shape: 1 1 256 256 (65536)
I1229 02:38:21.995144  6049 layer_factory.hpp:76] Creating layer conv1
I1229 02:38:21.995151  6049 net.cpp:111] Creating Layer conv1
I1229 02:38:21.995156  6049 net.cpp:478] conv1 <- data_data_0_split_0
I1229 02:38:21.995160  6049 net.cpp:434] conv1 -> conv1
I1229 02:38:21.996014  6049 net.cpp:156] Setting up conv1
I1229 02:38:21.996028  6049 net.cpp:164] Top shape: 1 100 176 176 (3097600)
I1229 02:38:21.996037  6049 layer_factory.hpp:76] Creating layer relu1
I1229 02:38:21.996049  6049 net.cpp:111] Creating Layer relu1
I1229 02:38:21.996060  6049 net.cpp:478] relu1 <- conv1
I1229 02:38:21.996064  6049 net.cpp:420] relu1 -> conv1 (in-place)
I1229 02:38:21.996181  6049 net.cpp:156] Setting up relu1
I1229 02:38:21.996189  6049 net.cpp:164] Top shape: 1 100 176 176 (3097600)
I1229 02:38:21.996193  6049 layer_factory.hpp:76] Creating layer pool1
I1229 02:38:21.996201  6049 net.cpp:111] Creating Layer pool1
I1229 02:38:21.996203  6049 net.cpp:478] pool1 <- conv1
I1229 02:38:21.996208  6049 net.cpp:434] pool1 -> pool1
I1229 02:38:21.996410  6049 net.cpp:156] Setting up pool1
I1229 02:38:21.996420  6049 net.cpp:164] Top shape: 1 100 88 88 (774400)
I1229 02:38:21.996424  6049 layer_factory.hpp:76] Creating layer conv2
I1229 02:38:21.996430  6049 net.cpp:111] Creating Layer conv2
I1229 02:38:21.996434  6049 net.cpp:478] conv2 <- pool1
I1229 02:38:21.996439  6049 net.cpp:434] conv2 -> conv2
I1229 02:38:22.007066  6049 net.cpp:156] Setting up conv2
I1229 02:38:22.007081  6049 net.cpp:164] Top shape: 1 200 42 42 (352800)
I1229 02:38:22.007091  6049 layer_factory.hpp:76] Creating layer relu2
I1229 02:38:22.007097  6049 net.cpp:111] Creating Layer relu2
I1229 02:38:22.007100  6049 net.cpp:478] relu2 <- conv2
I1229 02:38:22.007105  6049 net.cpp:420] relu2 -> conv2 (in-place)
I1229 02:38:22.007206  6049 net.cpp:156] Setting up relu2
I1229 02:38:22.007215  6049 net.cpp:164] Top shape: 1 200 42 42 (352800)
I1229 02:38:22.007218  6049 layer_factory.hpp:76] Creating layer pool2
I1229 02:38:22.007225  6049 net.cpp:111] Creating Layer pool2
I1229 02:38:22.007227  6049 net.cpp:478] pool2 <- conv2
I1229 02:38:22.007232  6049 net.cpp:434] pool2 -> pool2
I1229 02:38:22.007403  6049 net.cpp:156] Setting up pool2
I1229 02:38:22.007413  6049 net.cpp:164] Top shape: 1 200 21 21 (88200)
I1229 02:38:22.007417  6049 layer_factory.hpp:76] Creating layer conv3
I1229 02:38:22.007424  6049 net.cpp:111] Creating Layer conv3
I1229 02:38:22.007427  6049 net.cpp:478] conv3 <- pool2
I1229 02:38:22.007432  6049 net.cpp:434] conv3 -> conv3
I1229 02:38:22.018776  6049 net.cpp:156] Setting up conv3
I1229 02:38:22.018791  6049 net.cpp:164] Top shape: 1 300 19 19 (108300)
I1229 02:38:22.018800  6049 layer_factory.hpp:76] Creating layer relu3
I1229 02:38:22.018806  6049 net.cpp:111] Creating Layer relu3
I1229 02:38:22.018810  6049 net.cpp:478] relu3 <- conv3
I1229 02:38:22.018815  6049 net.cpp:420] relu3 -> conv3 (in-place)
I1229 02:38:22.018987  6049 net.cpp:156] Setting up relu3
I1229 02:38:22.018997  6049 net.cpp:164] Top shape: 1 300 19 19 (108300)
I1229 02:38:22.019001  6049 layer_factory.hpp:76] Creating layer conv4
I1229 02:38:22.019008  6049 net.cpp:111] Creating Layer conv4
I1229 02:38:22.019011  6049 net.cpp:478] conv4 <- conv3
I1229 02:38:22.019016  6049 net.cpp:434] conv4 -> conv4
I1229 02:38:22.035887  6049 net.cpp:156] Setting up conv4
I1229 02:38:22.035907  6049 net.cpp:164] Top shape: 1 300 17 17 (86700)
I1229 02:38:22.035914  6049 layer_factory.hpp:76] Creating layer relu4
I1229 02:38:22.035920  6049 net.cpp:111] Creating Layer relu4
I1229 02:38:22.035924  6049 net.cpp:478] relu4 <- conv4
I1229 02:38:22.035929  6049 net.cpp:420] relu4 -> conv4 (in-place)
I1229 02:38:22.036034  6049 net.cpp:156] Setting up relu4
I1229 02:38:22.036043  6049 net.cpp:164] Top shape: 1 300 17 17 (86700)
I1229 02:38:22.036047  6049 layer_factory.hpp:76] Creating layer drop
I1229 02:38:22.036053  6049 net.cpp:111] Creating Layer drop
I1229 02:38:22.036057  6049 net.cpp:478] drop <- conv4
I1229 02:38:22.036062  6049 net.cpp:420] drop -> conv4 (in-place)
I1229 02:38:22.036067  6049 net.cpp:156] Setting up drop
I1229 02:38:22.036072  6049 net.cpp:164] Top shape: 1 300 17 17 (86700)
I1229 02:38:22.036075  6049 layer_factory.hpp:76] Creating layer score_classes
I1229 02:38:22.036082  6049 net.cpp:111] Creating Layer score_classes
I1229 02:38:22.036084  6049 net.cpp:478] score_classes <- conv4
I1229 02:38:22.036089  6049 net.cpp:434] score_classes -> score_classes
I1229 02:38:22.036577  6049 net.cpp:156] Setting up score_classes
I1229 02:38:22.036593  6049 net.cpp:164] Top shape: 1 2 17 17 (578)
I1229 02:38:22.036607  6049 layer_factory.hpp:76] Creating layer upscore
I1229 02:38:22.036617  6049 net.cpp:111] Creating Layer upscore
I1229 02:38:22.036620  6049 net.cpp:478] upscore <- score_classes
I1229 02:38:22.036625  6049 net.cpp:434] upscore -> upscore
I1229 02:38:22.037005  6049 net.cpp:156] Setting up upscore
I1229 02:38:22.037015  6049 net.cpp:164] Top shape: 1 2 271 271 (146882)
I1229 02:38:22.037021  6049 layer_factory.hpp:76] Creating layer score
I1229 02:38:22.037027  6049 net.cpp:111] Creating Layer score
I1229 02:38:22.037030  6049 net.cpp:478] score <- upscore
I1229 02:38:22.037034  6049 net.cpp:478] score <- data_data_0_split_1
I1229 02:38:22.037039  6049 net.cpp:434] score -> score
I1229 02:38:22.037061  6049 net.cpp:156] Setting up score
I1229 02:38:22.037066  6049 net.cpp:164] Top shape: 1 2 256 256 (131072)
I1229 02:38:22.037070  6049 layer_factory.hpp:76] Creating layer score_score_0_split
I1229 02:38:22.037075  6049 net.cpp:111] Creating Layer score_score_0_split
I1229 02:38:22.037078  6049 net.cpp:478] score_score_0_split <- score
I1229 02:38:22.037082  6049 net.cpp:434] score_score_0_split -> score_score_0_split_0
I1229 02:38:22.037088  6049 net.cpp:434] score_score_0_split -> score_score_0_split_1
I1229 02:38:22.037096  6049 net.cpp:156] Setting up score_score_0_split
I1229 02:38:22.037099  6049 net.cpp:164] Top shape: 1 2 256 256 (131072)
I1229 02:38:22.037103  6049 net.cpp:164] Top shape: 1 2 256 256 (131072)
I1229 02:38:22.037106  6049 layer_factory.hpp:76] Creating layer loss
I1229 02:38:22.037111  6049 net.cpp:111] Creating Layer loss
I1229 02:38:22.037116  6049 net.cpp:478] loss <- score_score_0_split_0
I1229 02:38:22.037118  6049 net.cpp:478] loss <- label_label_0_split_0
I1229 02:38:22.037123  6049 net.cpp:434] loss -> loss
I1229 02:38:22.037129  6049 layer_factory.hpp:76] Creating layer loss
…
