…
I1230 02:41:50.330844  9642 solver.cpp:86] Creating training net from train_net file: fcn_train.prototxt
I1230 02:41:50.331199  9642 net.cpp:50] Initializing net from parameters: 
name: "FCN"
force_backward: true
state {
  phase: TRAIN
}
layer {
  name: "data"
  type: "Data"
  top: "data"
  transform_param {
    mirror: false
    crop_size: 0
    mean_value: 77
  }
  data_param {
    source: "train_images_lmdb/"
    batch_size: 1
    backend: LMDB
  }
}
layer {
  name: "label"
  type: "Data"
  top: "label"
  data_param {
    source: "train_labels_lmdb/"
    batch_size: 1
    backend: LMDB
  }
}
layer {
  name: "conv1"
  type: "Convolution"
  bottom: "data"
  top: "conv1"
  param {
    lr_mult: 1
    decay_mult: 1
  }
  param {
    lr_mult: 2
    decay_mult: 0
  }
  convolution_param {
    num_output: 100
    pad: 50
    kernel_size: 5
    group: 1
    stride: 1
    weight_filler {
      type: "gaussian"
      mean: 0
      std: 0.01
    }
    bias_filler {
      type: "constant"
      value: 0.1
    }
  }
}
layer {
  name: "relu1"
  type: "ReLU"
  bottom: "conv1"
  top: "conv1"
}
layer {
  name: "conv2"
  type: "Convolution"
  bottom: "conv1"
  top: "conv2"
  param {
    lr_mult: 1
    decay_mult: 1
  }
  param {
    lr_mult: 2
    decay_mult: 0
  }
  convolution_param {
    num_output: 100
    pad: 0
    kernel_size: 5
    group: 1
    stride: 1
    weight_filler {
      type: "gaussian"
      mean: 0
      std: 0.01
    }
    bias_filler {
      type: "constant"
      value: 0.1
    }
  }
}
layer {
  name: "relu2"
  type: "ReLU"
  bottom: "conv2"
  top: "conv2"
}
layer {
  name: "conv3"
  type: "Convolution"
  bottom: "conv2"
  top: "conv3"
  param {
    lr_mult: 1
    decay_mult: 1
  }
  param {
    lr_mult: 2
    decay_mult: 0
  }
  convolution_param {
    num_output: 100
    pad: 0
    kernel_size: 3
    group: 1
    stride: 1
    weight_filler {
      type: "gaussian"
      mean: 0
      std: 0.01
    }
    bias_filler {
      type: "constant"
      value: 0.1
    }
  }
}
layer {
  name: "relu3"
  type: "ReLU"
  bottom: "conv3"
  top: "conv3"
}
layer {
  name: "conv4"
  type: "Convolution"
  bottom: "conv3"
  top: "conv4"
  param {
    lr_mult: 1
    decay_mult: 1
  }
  param {
    lr_mult: 2
    decay_mult: 0
  }
  convolution_param {
    num_output: 100
    pad: 0
    kernel_size: 3
    group: 1
    stride: 1
    weight_filler {
      type: "gaussian"
      mean: 0
      std: 0.01
    }
    bias_filler {
      type: "constant"
      value: 0.1
    }
  }
}
layer {
  name: "relu4"
  type: "ReLU"
  bottom: "conv4"
  top: "conv4"
}
layer {
  name: "drop"
  type: "Dropout"
  bottom: "conv4"
  top: "conv4"
  dropout_param {
    dropout_ratio: 0.5
  }
}
layer {
  name: "score"
  type: "Crop"
  bottom: "conv4"
  bottom: "data"
  top: "score"
}
layer {
  name: "loss"
  type: "SoftmaxWithLoss"
  bottom: "score"
  bottom: "label"
  top: "loss"
  loss_param {
    normalize: true
  }
}
I1230 02:41:50.331272  9642 layer_factory.hpp:76] Creating layer data
I1230 02:41:50.331344  9642 net.cpp:111] Creating Layer data
I1230 02:41:50.331354  9642 net.cpp:434] data -> data
I1230 02:41:50.331894  9654 db_lmdb.cpp:22] Opened lmdb train_images_lmdb/
I1230 02:41:50.332208  9642 data_layer.cpp:44] output data size: 1,1,256,256
I1230 02:41:50.336459  9642 net.cpp:156] Setting up data
I1230 02:41:50.336484  9642 net.cpp:164] Top shape: 1 1 256 256 (65536)
I1230 02:41:50.336491  9642 layer_factory.hpp:76] Creating layer data_data_0_split
I1230 02:41:50.336503  9642 net.cpp:111] Creating Layer data_data_0_split
I1230 02:41:50.336508  9642 net.cpp:478] data_data_0_split <- data
I1230 02:41:50.336520  9642 net.cpp:434] data_data_0_split -> data_data_0_split_0
I1230 02:41:50.336535  9642 net.cpp:434] data_data_0_split -> data_data_0_split_1
I1230 02:41:50.336545  9642 net.cpp:156] Setting up data_data_0_split
I1230 02:41:50.336550  9642 net.cpp:164] Top shape: 1 1 256 256 (65536)
I1230 02:41:50.336554  9642 net.cpp:164] Top shape: 1 1 256 256 (65536)
I1230 02:41:50.336557  9642 layer_factory.hpp:76] Creating layer label
I1230 02:41:50.336588  9642 net.cpp:111] Creating Layer label
I1230 02:41:50.336596  9642 net.cpp:434] label -> label
I1230 02:41:50.337193  9656 db_lmdb.cpp:22] Opened lmdb train_labels_lmdb/
I1230 02:41:50.337296  9642 data_layer.cpp:44] output data size: 1,1,256,256
I1230 02:41:50.337869  9642 net.cpp:156] Setting up label
I1230 02:41:50.337882  9642 net.cpp:164] Top shape: 1 1 256 256 (65536)
I1230 02:41:50.337885  9642 layer_factory.hpp:76] Creating layer conv1
I1230 02:41:50.337896  9642 net.cpp:111] Creating Layer conv1
I1230 02:41:50.337900  9642 net.cpp:478] conv1 <- data_data_0_split_0
I1230 02:41:50.337909  9642 net.cpp:434] conv1 -> conv1
I1230 02:41:50.430641  9642 net.cpp:156] Setting up conv1
I1230 02:41:50.430681  9642 net.cpp:164] Top shape: 1 100 352 352 (12390400)
I1230 02:41:50.430699  9642 layer_factory.hpp:76] Creating layer relu1
I1230 02:41:50.430713  9642 net.cpp:111] Creating Layer relu1
I1230 02:41:50.430721  9642 net.cpp:478] relu1 <- conv1
I1230 02:41:50.430729  9642 net.cpp:420] relu1 -> conv1 (in-place)
I1230 02:41:50.430840  9642 net.cpp:156] Setting up relu1
I1230 02:41:50.430848  9642 net.cpp:164] Top shape: 1 100 352 352 (12390400)
I1230 02:41:50.430852  9642 layer_factory.hpp:76] Creating layer conv2
I1230 02:41:50.430860  9642 net.cpp:111] Creating Layer conv2
I1230 02:41:50.430865  9642 net.cpp:478] conv2 <- conv1
I1230 02:41:50.430869  9642 net.cpp:434] conv2 -> conv2
I1230 02:41:50.436558  9642 net.cpp:156] Setting up conv2
I1230 02:41:50.436583  9642 net.cpp:164] Top shape: 1 100 348 348 (12110400)
I1230 02:41:50.436594  9642 layer_factory.hpp:76] Creating layer relu2
I1230 02:41:50.436601  9642 net.cpp:111] Creating Layer relu2
I1230 02:41:50.436605  9642 net.cpp:478] relu2 <- conv2
I1230 02:41:50.436614  9642 net.cpp:420] relu2 -> conv2 (in-place)
I1230 02:41:50.436797  9642 net.cpp:156] Setting up relu2
I1230 02:41:50.436808  9642 net.cpp:164] Top shape: 1 100 348 348 (12110400)
I1230 02:41:50.436812  9642 layer_factory.hpp:76] Creating layer conv3
I1230 02:41:50.436820  9642 net.cpp:111] Creating Layer conv3
I1230 02:41:50.436822  9642 net.cpp:478] conv3 <- conv2
I1230 02:41:50.436828  9642 net.cpp:434] conv3 -> conv3
I1230 02:41:50.439384  9642 net.cpp:156] Setting up conv3
I1230 02:41:50.439401  9642 net.cpp:164] Top shape: 1 100 346 346 (11971600)
I1230 02:41:50.439412  9642 layer_factory.hpp:76] Creating layer relu3
I1230 02:41:50.439419  9642 net.cpp:111] Creating Layer relu3
I1230 02:41:50.439424  9642 net.cpp:478] relu3 <- conv3
I1230 02:41:50.439429  9642 net.cpp:420] relu3 -> conv3 (in-place)
I1230 02:41:50.439538  9642 net.cpp:156] Setting up relu3
I1230 02:41:50.439545  9642 net.cpp:164] Top shape: 1 100 346 346 (11971600)
I1230 02:41:50.439548  9642 layer_factory.hpp:76] Creating layer conv4
I1230 02:41:50.439556  9642 net.cpp:111] Creating Layer conv4
I1230 02:41:50.439559  9642 net.cpp:478] conv4 <- conv3
I1230 02:41:50.439564  9642 net.cpp:434] conv4 -> conv4
I1230 02:41:50.442162  9642 net.cpp:156] Setting up conv4
I1230 02:41:50.442184  9642 net.cpp:164] Top shape: 1 100 344 344 (11833600)
I1230 02:41:50.442193  9642 layer_factory.hpp:76] Creating layer relu4
I1230 02:41:50.442198  9642 net.cpp:111] Creating Layer relu4
I1230 02:41:50.442203  9642 net.cpp:478] relu4 <- conv4
I1230 02:41:50.442209  9642 net.cpp:420] relu4 -> conv4 (in-place)
I1230 02:41:50.442315  9642 net.cpp:156] Setting up relu4
I1230 02:41:50.442323  9642 net.cpp:164] Top shape: 1 100 344 344 (11833600)
I1230 02:41:50.442327  9642 layer_factory.hpp:76] Creating layer drop
I1230 02:41:50.442333  9642 net.cpp:111] Creating Layer drop
I1230 02:41:50.442337  9642 net.cpp:478] drop <- conv4
I1230 02:41:50.442347  9642 net.cpp:420] drop -> conv4 (in-place)
I1230 02:41:50.442361  9642 net.cpp:156] Setting up drop
I1230 02:41:50.442365  9642 net.cpp:164] Top shape: 1 100 344 344 (11833600)
I1230 02:41:50.442369  9642 layer_factory.hpp:76] Creating layer score
I1230 02:41:50.442380  9642 net.cpp:111] Creating Layer score
I1230 02:41:50.442384  9642 net.cpp:478] score <- conv4
I1230 02:41:50.442387  9642 net.cpp:478] score <- data_data_0_split_1
I1230 02:41:50.442394  9642 net.cpp:434] score -> score
I1230 02:41:50.442422  9642 net.cpp:156] Setting up score
I1230 02:41:50.442428  9642 net.cpp:164] Top shape: 1 100 256 256 (6553600)
I1230 02:41:50.442431  9642 layer_factory.hpp:76] Creating layer loss
I1230 02:41:50.442437  9642 net.cpp:111] Creating Layer loss
I1230 02:41:50.442440  9642 net.cpp:478] loss <- score
I1230 02:41:50.442445  9642 net.cpp:478] loss <- label
I1230 02:41:50.442448  9642 net.cpp:434] loss -> loss
I1230 02:41:50.442459  9642 layer_factory.hpp:76] Creating layer loss
I1230 02:41:50.452391  9642 net.cpp:156] Setting up loss
…
I1230 02:41:50.452787  9642 solver.cpp:186] Creating test net (#0) specified by test_net file: fcn_test.prototxt
I1230 02:41:50.452890  9642 net.cpp:50] Initializing net from parameters: 
name: "FCN"
force_backward: true
state {
  phase: TEST
}
layer {
  name: "data"
  type: "Data"
  top: "data"
  transform_param {
    mirror: false
    crop_size: 0
    mean_value: 77
  }
  data_param {
    source: "val_images_lmdb/"
    batch_size: 1
    backend: LMDB
  }
}
layer {
  name: "label"
  type: "Data"
  top: "label"
  data_param {
    source: "val_labels_lmdb/"
    batch_size: 1
    backend: LMDB
  }
}
layer {
  name: "conv1"
  type: "Convolution"
  bottom: "data"
  top: "conv1"
  param {
    lr_mult: 1
    decay_mult: 1
  }
  param {
    lr_mult: 2
    decay_mult: 0
  }
  convolution_param {
    num_output: 100
    pad: 50
    kernel_size: 5
    group: 1
    stride: 1
    weight_filler {
      type: "gaussian"
      mean: 0
      std: 0.01
    }
    bias_filler {
      type: "constant"
      value: 0.1
    }
  }
}
layer {
  name: "relu1"
  type: "ReLU"
  bottom: "conv1"
  top: "conv1"
}
layer {
  name: "conv2"
  type: "Convolution"
  bottom: "conv1"
  top: "conv2"
  param {
    lr_mult: 1
    decay_mult: 1
  }
  param {
    lr_mult: 2
    decay_mult: 0
  }
  convolution_param {
    num_output: 100
    pad: 0
    kernel_size: 5
    group: 1
    stride: 1
    weight_filler {
      type: "gaussian"
      mean: 0
      std: 0.01
    }
    bias_filler {
      type: "constant"
      value: 0.1
    }
  }
}
layer {
  name: "relu2"
  type: "ReLU"
  bottom: "conv2"
  top: "conv2"
}
layer {
  name: "conv3"
  type: "Convolution"
  bottom: "conv2"
  top: "conv3"
  param {
    lr_mult: 1
    decay_mult: 1
  }
  param {
    lr_mult: 2
    decay_mult: 0
  }
  convolution_param {
    num_output: 100
    pad: 0
    kernel_size: 3
    group: 1
    stride: 1
    weight_filler {
      type: "gaussian"
      mean: 0
      std: 0.01
    }
    bias_filler {
      type: "constant"
      value: 0.1
    }
  }
}
layer {
  name: "relu3"
  type: "ReLU"
  bottom: "conv3"
  top: "conv3"
}
layer {
  name: "conv4"
  type: "Convolution"
  bottom: "conv3"
  top: "conv4"
  param {
    lr_mult: 1
    decay_mult: 1
  }
  param {
    lr_mult: 2
    decay_mult: 0
  }
  convolution_param {
    num_output: 100
    pad: 0
    kernel_size: 3
    group: 1
    stride: 1
    weight_filler {
      type: "gaussian"
      mean: 0
      std: 0.01
    }
    bias_filler {
      type: "constant"
      value: 0.1
    }
  }
}
layer {
  name: "relu4"
  type: "ReLU"
  bottom: "conv4"
  top: "conv4"
}
layer {
  name: "drop"
  type: "Dropout"
  bottom: "conv4"
  top: "conv4"
  dropout_param {
    dropout_ratio: 0.5
  }
}
layer {
  name: "score"
  type: "Crop"
  bottom: "conv4"
  bottom: "data"
  top: "score"
}
layer {
  name: "loss"
  type: "SoftmaxWithLoss"
  bottom: "score"
  bottom: "label"
  top: "loss"
  loss_param {
    normalize: true
  }
}
layer {
  name: "accuracy"
  type: "Accuracy"
  bottom: "score"
  bottom: "label"
  top: "accuracy"
}
I1230 02:41:50.452957  9642 layer_factory.hpp:76] Creating layer data
I1230 02:41:50.453006  9642 net.cpp:111] Creating Layer data
I1230 02:41:50.453016  9642 net.cpp:434] data -> data
I1230 02:41:50.453579  9659 db_lmdb.cpp:22] Opened lmdb val_images_lmdb/
I1230 02:41:50.453881  9642 data_layer.cpp:44] output data size: 1,1,256,256
I1230 02:41:50.454529  9642 net.cpp:156] Setting up data
I1230 02:41:50.454542  9642 net.cpp:164] Top shape: 1 1 256 256 (65536)
I1230 02:41:50.454547  9642 layer_factory.hpp:76] Creating layer data_data_0_split
I1230 02:41:50.454556  9642 net.cpp:111] Creating Layer data_data_0_split
I1230 02:41:50.454560  9642 net.cpp:478] data_data_0_split <- data
I1230 02:41:50.454566  9642 net.cpp:434] data_data_0_split -> data_data_0_split_0
I1230 02:41:50.454573  9642 net.cpp:434] data_data_0_split -> data_data_0_split_1
I1230 02:41:50.454581  9642 net.cpp:156] Setting up data_data_0_split
I1230 02:41:50.454586  9642 net.cpp:164] Top shape: 1 1 256 256 (65536)
I1230 02:41:50.454589  9642 net.cpp:164] Top shape: 1 1 256 256 (65536)
I1230 02:41:50.454592  9642 layer_factory.hpp:76] Creating layer label
I1230 02:41:50.454619  9642 net.cpp:111] Creating Layer label
I1230 02:41:50.454625  9642 net.cpp:434] label -> label
I1230 02:41:50.455354  9661 db_lmdb.cpp:22] Opened lmdb val_labels_lmdb/
I1230 02:41:50.455415  9642 data_layer.cpp:44] output data size: 1,1,256,256
I1230 02:41:50.467119  9642 net.cpp:156] Setting up label
I1230 02:41:50.467164  9642 net.cpp:164] Top shape: 1 1 256 256 (65536)
I1230 02:41:50.467175  9642 layer_factory.hpp:76] Creating layer label_label_0_split
I1230 02:41:50.467186  9642 net.cpp:111] Creating Layer label_label_0_split
I1230 02:41:50.467193  9642 net.cpp:478] label_label_0_split <- label
I1230 02:41:50.467201  9642 net.cpp:434] label_label_0_split -> label_label_0_split_0
I1230 02:41:50.467213  9642 net.cpp:434] label_label_0_split -> label_label_0_split_1
I1230 02:41:50.467224  9642 net.cpp:156] Setting up label_label_0_split
I1230 02:41:50.467231  9642 net.cpp:164] Top shape: 1 1 256 256 (65536)
I1230 02:41:50.467234  9642 net.cpp:164] Top shape: 1 1 256 256 (65536)
I1230 02:41:50.467238  9642 layer_factory.hpp:76] Creating layer conv1
I1230 02:41:50.467248  9642 net.cpp:111] Creating Layer conv1
I1230 02:41:50.467252  9642 net.cpp:478] conv1 <- data_data_0_split_0
I1230 02:41:50.467258  9642 net.cpp:434] conv1 -> conv1
I1230 02:41:50.468459  9642 net.cpp:156] Setting up conv1
I1230 02:41:50.468472  9642 net.cpp:164] Top shape: 1 100 352 352 (12390400)
I1230 02:41:50.468484  9642 layer_factory.hpp:76] Creating layer relu1
I1230 02:41:50.468497  9642 net.cpp:111] Creating Layer relu1
I1230 02:41:50.468507  9642 net.cpp:478] relu1 <- conv1
I1230 02:41:50.468513  9642 net.cpp:420] relu1 -> conv1 (in-place)
I1230 02:41:50.468658  9642 net.cpp:156] Setting up relu1
I1230 02:41:50.468668  9642 net.cpp:164] Top shape: 1 100 352 352 (12390400)
I1230 02:41:50.468672  9642 layer_factory.hpp:76] Creating layer conv2
I1230 02:41:50.468679  9642 net.cpp:111] Creating Layer conv2
I1230 02:41:50.468683  9642 net.cpp:478] conv2 <- conv1
I1230 02:41:50.468690  9642 net.cpp:434] conv2 -> conv2
I1230 02:41:50.474633  9642 net.cpp:156] Setting up conv2
I1230 02:41:50.474660  9642 net.cpp:164] Top shape: 1 100 348 348 (12110400)
I1230 02:41:50.474674  9642 layer_factory.hpp:76] Creating layer relu2
I1230 02:41:50.474683  9642 net.cpp:111] Creating Layer relu2
I1230 02:41:50.474688  9642 net.cpp:478] relu2 <- conv2
I1230 02:41:50.474694  9642 net.cpp:420] relu2 -> conv2 (in-place)
I1230 02:41:50.474905  9642 net.cpp:156] Setting up relu2
I1230 02:41:50.474915  9642 net.cpp:164] Top shape: 1 100 348 348 (12110400)
I1230 02:41:50.474920  9642 layer_factory.hpp:76] Creating layer conv3
I1230 02:41:50.474931  9642 net.cpp:111] Creating Layer conv3
I1230 02:41:50.474936  9642 net.cpp:478] conv3 <- conv2
I1230 02:41:50.474941  9642 net.cpp:434] conv3 -> conv3
I1230 02:41:50.477608  9642 net.cpp:156] Setting up conv3
I1230 02:41:50.477645  9642 net.cpp:164] Top shape: 1 100 346 346 (11971600)
I1230 02:41:50.477659  9642 layer_factory.hpp:76] Creating layer relu3
I1230 02:41:50.477666  9642 net.cpp:111] Creating Layer relu3
I1230 02:41:50.477670  9642 net.cpp:478] relu3 <- conv3
I1230 02:41:50.477675  9642 net.cpp:420] relu3 -> conv3 (in-place)
I1230 02:41:50.477805  9642 net.cpp:156] Setting up relu3
I1230 02:41:50.477815  9642 net.cpp:164] Top shape: 1 100 346 346 (11971600)
I1230 02:41:50.477819  9642 layer_factory.hpp:76] Creating layer conv4
I1230 02:41:50.477826  9642 net.cpp:111] Creating Layer conv4
I1230 02:41:50.477830  9642 net.cpp:478] conv4 <- conv3
I1230 02:41:50.477835  9642 net.cpp:434] conv4 -> conv4
I1230 02:41:50.480504  9642 net.cpp:156] Setting up conv4
I1230 02:41:50.480522  9642 net.cpp:164] Top shape: 1 100 344 344 (11833600)
I1230 02:41:50.480531  9642 layer_factory.hpp:76] Creating layer relu4
I1230 02:41:50.480538  9642 net.cpp:111] Creating Layer relu4
I1230 02:41:50.480542  9642 net.cpp:478] relu4 <- conv4
I1230 02:41:50.480550  9642 net.cpp:420] relu4 -> conv4 (in-place)
I1230 02:41:50.480661  9642 net.cpp:156] Setting up relu4
I1230 02:41:50.480669  9642 net.cpp:164] Top shape: 1 100 344 344 (11833600)
I1230 02:41:50.480674  9642 layer_factory.hpp:76] Creating layer drop
I1230 02:41:50.480680  9642 net.cpp:111] Creating Layer drop
I1230 02:41:50.480684  9642 net.cpp:478] drop <- conv4
I1230 02:41:50.480690  9642 net.cpp:420] drop -> conv4 (in-place)
I1230 02:41:50.480696  9642 net.cpp:156] Setting up drop
I1230 02:41:50.480701  9642 net.cpp:164] Top shape: 1 100 344 344 (11833600)
I1230 02:41:50.480705  9642 layer_factory.hpp:76] Creating layer score
I1230 02:41:50.480710  9642 net.cpp:111] Creating Layer score
I1230 02:41:50.480712  9642 net.cpp:478] score <- conv4
I1230 02:41:50.480716  9642 net.cpp:478] score <- data_data_0_split_1
I1230 02:41:50.480721  9642 net.cpp:434] score -> score
I1230 02:41:50.480739  9642 net.cpp:156] Setting up score
I1230 02:41:50.480744  9642 net.cpp:164] Top shape: 1 100 256 256 (6553600)
I1230 02:41:50.480747  9642 layer_factory.hpp:76] Creating layer score_score_0_split
I1230 02:41:50.480752  9642 net.cpp:111] Creating Layer score_score_0_split
I1230 02:41:50.480756  9642 net.cpp:478] score_score_0_split <- score
I1230 02:41:50.480761  9642 net.cpp:434] score_score_0_split -> score_score_0_split_0
I1230 02:41:50.480767  9642 net.cpp:434] score_score_0_split -> score_score_0_split_1
I1230 02:41:50.480772  9642 net.cpp:156] Setting up score_score_0_split
I1230 02:41:50.480775  9642 net.cpp:164] Top shape: 1 100 256 256 (6553600)
I1230 02:41:50.480779  9642 net.cpp:164] Top shape: 1 100 256 256 (6553600)
I1230 02:41:50.480787  9642 layer_factory.hpp:76] Creating layer loss
I1230 02:41:50.480799  9642 net.cpp:111] Creating Layer loss
I1230 02:41:50.480803  9642 net.cpp:478] loss <- score_score_0_split_0
I1230 02:41:50.480808  9642 net.cpp:478] loss <- label_label_0_split_0
I1230 02:41:50.480813  9642 net.cpp:434] loss -> loss
I1230 02:41:50.480819  9642 layer_factory.hpp:76] Creating layer loss
…
